pytorchmf/ebolamodel.pt (torch_old, 14297 bytes, 4 tensors)

virus.weight f4 [7, 20]
00000000: 6937 3abf ca53 d93f c1c2 18bf 6647 1bbf
00000010: eda5 e63e 42b8 1f3f 8a96 a2bf 87b7 b8bf
00000020: 2970 9abf fe87 8bbe 1d9d 813e 146c 87bf
00000030: ff48 8ebe 5dbd c4bd d4d1 2bbf 599c 3f3f
00000040: b842 e5be 1cc2 d53c a018 be3f 7660 0940
00000050: 84b7 3c40 b6bb f9bd 446b 80bf 64af 9b3e
00000060: 0a94 053e 0f5a 7d3f 6fe3 993f 0ff5 823f
00000070: 47b6 1ac0 7570 fabf 489a 8b3f 77dd 8c3f
00000080: 83fc 9f3f 2d77 c63f 7f48 403f e96f 873e
00000090: 44fa 093f 873e 9fbf 6347 9ebe 05ba 083e
000000a0: 2519 c13e 54fd ab3f 15ac 033f 7ce7 0a40
000000b0: f908 aa3f b925 16bf c1ae 86bf bf98 2c3f
000000c0: ecd1 993d f30b 93be 430f 013e dc50 57bf
000000d0: b60a 89bf 48a3 96be 66fe 12be 5514 a5bf
000000e0: 12a0 34bf f98a 9dbf 03f4 373d 4f17 0cc0
000000f0: 442e 97bf ce77 c03e 4bde d53e 4aca 28bf
00000100: 79eb 523f 7c4e a1be 874d b1be c57d 8cbe
00000110: 6a9c 0e3f 6d5e e73b 691f d4bd 7692 a03e
00000120: 956a ef3e 8217 aebf a6d8 7cbd 899e f93d
00000130: 11f4 043e 49be 113f b264 a2bf 8d0a 94be
00000140: 8fe1 f23e 81b3 343f 2ee2 903f 3305 7dbf
00000150: cb91 5e3f 47d8 7f3f d374 cdbe d0c2 86bf
00000160: 3046 b9be 64a9 9a3f 870a 04c0 a952 713e
00000170: d9a0 12bf af2d 8f3f 3c7e 0640 8858 00c0
00000180: 4c49 013f 7b05 f23e 9676 6ebf faf5 1a3f
00000190: 7389 803f 10a0 803f 0c56 b03e f3c1 4bbe
000001a0: 4eaa b53e 7ed1 58bf 309d f5be 996c 603f
000001b0: 7e57 bcbf d014 2fbd cf7e 1240 408a 22be
000001c0: 52b2 913f 827f 873f 7c0b 16bf 11d3 d93f
000001d0: 8cc2 b8be 604e ec3f 4ad2 f0bf ae2d 75bf
000001e0: 987d 643f 9e24 883e b962 863e d8fe f3be
000001f0: 483e bfbe 89ba 013f eb13 bdbe fe77 1e3f
00000200: 54a5 b8bf dc9d 74bf bc01 1c3e a06b 603f
00000210: f97b 3abf 064b a5bf ed29 af3d a518 4ebf
00000220: 315a 84bd d1e9 8abf 8a4a a13e 81ff 10bf
-0.727408 1.6978695 -0.5967217 -0.6065582 0.45048466 0.6239053 -1.2702191 -1.4431008
-1.2065479 -0.2725219 0.2531518 -1.0579858 -0.27790067 -0.09606431 -0.6711705 0.7484794
-0.44777465 0.026093535 1.4851265 2.1465125 2.948701 -0.12194006 -1.0032735 0.3040725
0.13044754 0.98965544 1.2022532 1.0231036 -2.4173753 -1.9565569 1.0906458 1.1005086
1.2498935 1.550512 0.7511062 0.26452568 0.538975 -1.2440957 -0.3091384 0.13352211
0.37714496 1.3436685 0.5143445 2.1703787 1.3283988 -0.5865131 -1.0522081 0.6742057
0.075107425 -0.28720054 0.12603478 -0.84107757 -1.0706394 -0.2942145 -0.14354858 -1.289683
-0.7055675 -1.2308036 0.044910442 -2.1889226 -1.1810994 0.37591404 0.4177116 -0.6593367
0.8239055 -0.3150519 -0.3462946 -0.27439705 0.5570742 0.007060817 -0.103575535 0.3136174
0.46761003 -1.3600924 -0.06173005 0.12188441 0.12983729 0.5693098 -1.268698 -0.289143
0.47437713 0.705864 1.1319025 -0.9883606 0.8694121 0.9993939 -0.40128192 -1.0528202
-0.3618636 1.2082944 -2.0631425 0.23566689 -0.57276684 1.1185817 2.1014547 -2.0054035
0.5050247 0.47269806 -0.931497 0.6053158 1.0041946 1.0048847 0.3444065 -0.19898205
0.35481495 -0.8469466 -0.47971487 0.87665707 -1.47142 -0.042744458 2.2889898 -0.1587305
1.1382544 1.0585787 -0.58611274 1.7017537 -0.36085927 1.8461418 -1.8814175 -0.95772827
0.8925414 0.26590437 0.26247194 -0.47655368 -0.37352204 0.50675255 -0.3692926 0.61901844
-1.4425454 -0.95553374 0.15235037 0.8766422 -0.7284542 -1.291352 0.085529186 -0.80506355
-0.06462515 -1.0852605 0.3150218 -0.5663987

human.weight f4 [151, 20]
00000000: 2864 703e c94a 003f 5536 013f d54c 7d3e
00000010: 2c29 c5bf 99f9 df3e e37d 19bf 03c2 f53f
00000020: e669 283e 6eb8 913e 2324 a83e 601e bbbe
00000030: a49a 8f3f 8bdd a13e bba0 673f 00d2 113f
00000040: 7f3d 6b3f f39f e2bd 40ad 2ebf e05a 0940
00000050: 8ddb d53c 36fc 8bbd 2dea 6a3d 152a 79bf
00000060: e7cc 3c3f b7fb f9be f773 6cbf 5159 a3be
00000070: 598c c3be 1a84 0dc0 f966 43be 859e 873f
00000080: 0bf7 263f dc6b 4cba 2129 ecbd 0ec3 6e3f
00000090: 865a 8a3f d766 85bf a1c8 1f3e 4514 a43f
000000a0: cc06 243f 1e01 f43f eb41 9ebf 6fd0 71be
000000b0: b38a e43c f7c6 033f b3c2 623e fb6b 03bf
000000c0: 1166 0ec0 e62f cbbf 258e 6abf 5b51 423f
000000d0: 4607 833f f8d2 1440 90d1 5a3f 0c37 ad3e
000000e0: b69b 06c0 ee8f 6dbf e9fd e3bf 3176 c23e
000000f0: 74de 1940 0959 9fbe 0c42 053e 81eb b03e
00000100: 2f86 db3d 3210 86be 3ca5 fbbd f65b 0540
00000110: b9a8 69bf 9762 d03f 246c 10bf e5e2 57bf
00000120: 3446 e4bc c7d5 fd3f 832e 323f 525c 1c3e
00000130: 8d99 8c3f a147 9fbf 00ef 393f 1bd8 81be
00000140: 0552 83bf 7da1 ca3f 7e49 7e3f fff3 893f
00000150: b871 cebf 32d8 0c3f a4ca 9abf 33e6 f73e
00000160: d9e9 0640 29d8 47bf eb4a 393f 5d5b 1c40
00000170: 6e09 91bf 46a3 95bf 53c2 41bf fcf5 a9be
00000180: 5201 76bf c80f 95be fccc 0bbf 91e1 433f
00000190: 3a81 213e 9725 513e b54c 91bf 65a4 dd3f
000001a0: 7844 0440 b544 143f d978 e53e 3c4d 91bf
000001b0: 63e1 96bf 024f 9b3e 82b9 0bbf 5c24 393f
000001c0: 0b09 b63f 7c43 d4bc 5dc3 b53f a76a 8dbf
000001d0: 5a7d 5d3f c7c0 8bbf aac2 28c0 c801 46bf
000001e0: 4c37 a4bf 7936 0ebf 3f0c 8a3f e56f 61bf
000001f0: 47e2 bd3f 4967 2ebf f5a6 3e3f 5303 4f3e
00000200: 038a e93e 75d8 b23e 7c8b 7dbf a4bf 8a3f
00000210: 4e45 0dbf f60d f43d 5cc9 2f3e 4ac2 d43f
00000220: 81d0 31be 0354 433f 7313 9abf 6a21 70bf
00000230: 0900 253f 1812 0a40 7a11 48bf 2261 b83d
00000240: 45a0 9f3e c723 c03f 8f78 98bf a49e 99be
00000250: 0506 d1be 57d9 503e 1e0d 7dbf 7af0 0d3f
00000260: 0228 1d40 5c14 12bd 3e4c 54bf cedf 93bf
00000270: 0087 20bf b3a4 b1bf bfb8 b33d 0baa 9dbf
00000280: 1645 ea3f 6f0b 193f 04df a7bf 7723 8dbe
00000290: c80f 12bf 43da fd3e 299e b03e 6521 b2be
000002a0: 11a4 f73e 9dc1 c33f e644 e03f d693 6b3e
000002b0: 9f19 1d3f e929 43bf 55d2 983f a301 8f3f
000002c0: 3fa0 493e e95b dd3f c22a da3f 2510 18bf
000002d0: 7827 7b3f 5df3 8fbe 82ad 0abf a5e5 6fbf
000002e0: dd53 953f 5562 b1be 2bc9 6bbf aa50 0dc0
000002f0: 517d 1ac0 12d3 21bd 147b e6be e37f 753e
00000300: 7f55 dd3e 08ed e43e e6c6 8abe f86a 933f
00000310: f88e 9fbf bb8c 5bbe 4df3 0c3f 0c84 b8bf
00000320: 790f 14bf 9c40 a9bd ae2c 353e 97ab 23be
00000330: 8873 d13f 53e3 d73f f81d a4be 8e87 b43e
00000340: 7a74 bcbe b26b 09bf 5d80 e8be 0de4 c73e
00000350: aba1 bdbf 9152 493f 6711 8cbe bb92 1dbf
00000360: de54 84bc 9a5d 9ebe 3d39 453f 0664 613f
00000370: dcff 1fbf a934 e1bf b99b a33e fdd7 2abf
00000380: 3e3e 973f 72c0 f6bf 22db 11bf 231d 423f
00000390: 5aa9 a13e 9155 9c3e 4f0b 98bf 0b92 cd3e
000003a0: f552 fa3f 873f 84bf d38b c03e 2ea0 d9bf
000003b0: 1595 fb3d 824f 10c0 f388 013f 2e4c 09bf
000003c0: fc23 b3bf 9c81 3a3f 2190 06be 9bd5 b4be
000003d0: ab0f a63e b6cc 3a3f 2e42 b93f 6098 313f
000003e0: db69 e6bf 9f59 c23f 6aef c3bf 0ed4 69bf
000003f0: 4a34 fc3e b589 db3e b48f 23bf ab71 a03e
0.23475707 0.50114113 0.5047353 0.2473634 -1.540319 0.43745115 -0.5995771 1.9199833
0.16446647 0.2846102 0.3284007 -0.36546612 1.1219068 0.31614336 0.9047963 0.5696106
0.9189071 -0.11065664 -0.6823311 2.1461716 0.026105667 -0.06835215 0.057352234 -0.9732984
0.73750156 -0.48824856 -0.9236445 -0.3190408 -0.38193014 -2.2111878 -0.1908225 1.0595251
0.6522071 -0.0007798055 -0.11531282 0.9326638 1.0808876 -1.0422009 0.15603878 1.2818686
0.6407287 1.9062841 -1.2363867 -0.23614667 0.027898168 0.5147547 0.22144584 -0.5133664
-2.2249796 -1.5873992 -0.91623145 0.7590539 1.0236595 2.3253765 0.85476017 0.3383106
-2.1032538 -0.92797744 -1.7811862 0.37980798 2.4042025 -0.31122616 0.13013476 0.34554675
0.10718953 -0.2618423 -0.12287375 2.0837379 -0.91273075 1.6280087 -0.5641501 -0.8433059
-0.027865507 1.9830865 0.6960222 0.15269592 1.098436 -1.2443734 0.7263031 -0.25360188
-1.0259405 1.5830532 0.9933089 1.0777587 -1.6128454 0.5501739 -1.2093091 0.48417816
2.108023 -0.7806421 0.7237994 2.4430764 -1.1331003 -1.1690452 -0.7568714 -0.33195484
-0.96095765 -0.29113603 -0.54609656 0.7651606 0.15771952 0.20424496 -1.1351534 1.7315794
2.066679 0.5791734 0.44818762 -1.1351695 -1.1787533 0.30333716 -0.5457994 0.72321105
1.422151 -0.025911085 1.4200245 -1.1048173 0.86519396 -1.0918206 -2.6368814 -0.7734647
-1.2829375 -0.5555187 1.0784987 -0.8806136 1.4834679 -0.6812635 0.74473506 0.20216112
0.45613107 0.3493077 -0.9904096 1.0839734 -0.55183876 0.11916725 0.17166656 1.6621792
-0.17364694 0.76300067 -1.2037185 -0.93800986 0.6445318 2.1573544 -0.7815167 0.090029016
0.31176963 1.5010918 -1.1911792 -0.30003846 -0.40824905 0.20395409 -0.9884814 0.55445063
2.455567 -0.035663947 -0.82928836 -1.1552675 -0.62705994 -1.3878387 0.08775472 -1.2317518
1.8302333 0.5978307 -1.3114934 -0.2756612 -0.5705533 0.49580583 0.34495667 -0.34791103
0.4836736 1.5293461 1.7521026 0.23005614 0.6136722 -0.76235825 1.1939188 1.1172374
0.19690035 1.7293674 1.7044299 -0.59399635 0.981071 -0.2811536 -0.54171 -0.93709785
1.1666218 -0.34645334 -0.9210383 -2.2080483 -2.4138987 -0.039507933 -0.45015776 0.23974566
0.4322929 0.4471209 -0.27104872 1.1517019 -1.2465506 -0.21440403 0.5505875 -1.4415298
-0.5783611 -0.082642764 0.17692825 -0.15983425 1.6363382 1.6866249 -0.32054114 0.3525967
-0.36807615 -0.53679955 -0.45410433 0.39041176 -1.4814962 0.7864161 -0.27357027 -0.6155202
-0.01615375 -0.30930787 0.77040464 0.8804325 -0.62499785 -1.7594196 0.31954744 -0.6673582
1.181587 -1.927748 -0.56974995 0.7582571 0.31574517 0.30534032 -1.1878451 0.40150484
1.9556566 -1.0331887 0.37606677 -1.7002008 0.122842945 -2.2548528 0.5059959 -0.53631866
-1.3995357 0.7285402 -0.13140918 -0.35319218 0.3243383 0.72968614 1.4473321 0.6937313
-1.8001055 1.51836 -1.5307438 -0.91339195 0.49258643 0.428785 -0.6389115 0.31336722

bias_virus.weight f4 [7, 1]
00000000: 3d4f 583f 45b8 64bf 900f 3f3f 29c2 ad3e
00000010: bbdb cdbe 957a d0be 7fb1 19bf
0.8449591 -0.89343673 0.7463312 0.33937195 -0.40206704 -0.40718523 -0.6003646

bias_human.weight f4 [151, 1]
00000000: 3d17 ce3c be0e 6c3d 9390 b1bf 4613 1fbe
00000010: d06e cb3f 5306 35be 9a29 183e 8dd0 29bf
00000020: 0117 b13e 3124 54bf de46 b43f 71dc 393e
00000030: bbfa 72bf a456 453e 3ef6 3cbd 9952 273e
00000040: d2fb 32be d8db 22bd eea0 bbbf 1d34 8c3d
00000050: 5aa7 f63e ef97 a53f 6300 de3e e3fd 903e
00000060: ed9d bc3f 2fa2 b3be e422 80bd 93b7 283f
00000070: 41aa 193f 2b32 6dbf 8262 f63f 1bee a0bf
00000080: 2241 813f 3d16 b93e 11f8 1fbf 84b7 9bbf
00000090: 1fbe ad3f 8fe2 4c3e 4a1e 103f 09b9 d93e
000000a0: 325a ab3e 04e5 2dc0 d359 d5bd 1cfc e1be
000000b0: fe57 46bf c06d 0cbd 17d6 98bf cb21 cbbf
000000c0: 7372 05bf 25fa 8c3e 47c8 f7bf 6d05 95bf
000000d0: aec4 5ebe 1337 62bf 9b9b f6bf b739 413f
000000e0: 59df eebe a8b6 96bf 74b1 a0bf 49ed 103f
000000f0: 39e5 6a3f da93 f93e e1f1 0f3f 1c70 92be
00000100: ec77 893f 1a61 26be 814c 803f 584b b6bf
00000110: e728 91bf 0746 d0bd b8c2 51bf d421 223e
00000120: 8082 4e3f 0a44 5e3f 8b22 c2bf b254 5abf
00000130: c77d 93bd 1aae e6bf 752d a2be e3b4 9fbf
00000140: 02c2 2fbe 919a 9d3f 853c 213e 2b3c dd3e
00000150: 301e 9f3e a26e dd3e 6864 b93e 348a e8be
00000160: 26bc b43e 845a 04c0 4e19 4fbf ac78 633f
00000170: 787d cfbe 8bdb 93bf 88b0 333f 0712 51be
00000180: 2dc7 90bf 971e 113f bc4a e4be b5f3 24bf
00000190: 3a77 6d3f 53b5 e8be f23f e1bf ade6 6fbf
000001a0: a38f 2dbd 7921 4a3f 6090 8cbe 589a 26bf
000001b0: dfc9 123f 386b 9f3f 98b9 cd3f cca2 303f
000001c0: 86d8 a73f 44e9 8cbf 2425 2ebf d82e b93f
000001d0: 261c 75be 9717 3c3f f43e 9e3f 2ba0 8fbe
000001e0: ce1b 85bf 560d f83f 65a0 ea3e 5a51 c63e
000001f0: 5618 413d 6940 1e40 5d96 b3be 66a5 d4bc
00000200: 8aa7 e0bf 7b2e 3b3e 6697 ea3e 1195 d3bf
00000210: dfb2 51bf 867e 9d3f cc25 f8be 0ec2 3b3f
00000220: 9ded 233e 2868 2ebe e6b6 eb3e 1fc7 723d
00000230: 7487 20bf 328c 67bd dce6 9cbe 193d 333f
00000240: 967a e93d e7d9 ffbd 304e b1be 5778 513e
00000250: dfe8 423c 3834 8c3e b10b c03e
0.025157565 0.057631247 -1.3872246 -0.15534696 1.5893192 -0.17678194 0.1485962 -0.6633385
0.34587863 -0.82867724 1.4084127 0.18150498 -0.94913834 0.19271332 -0.046133272 0.16340102
-0.17478874 -0.03976044 -1.4658487 0.06845877 0.48174554 1.2936991 0.4335967 0.283187
1.4735695 -0.35084674 -0.06256655 0.6590511 0.6002541 -0.92654675 1.9248812 -1.2572664
1.0098002 0.3614978 -0.62487894 -1.216538 1.3573645 0.200083 0.5629622 0.42523983
0.3346725 -2.717103 -0.10417523 -0.44137657 -0.77478015 -0.034284353 -1.1940335 -1.5869688
-0.5212776 0.27534595 -1.9357995 -1.1642281 -0.21754715 -0.88365287 -1.9266237 0.7547869
-0.46654776 -1.1774492 -1.2554154 0.5661207 0.91756016 0.48745614 0.5622845 -0.28601158
1.0739722 -0.16247979 1.0023347 -1.4241743 -1.1340607 -0.10169607 -0.8193774 0.15833217
0.8066788 0.8682257 -1.5166792 -0.85285485 -0.072017245 -1.8021882 -0.31675306 -1.2477077
-0.17163852 1.2312795 0.15745743 0.43209967 0.3107772 0.4324847 0.36209416 -0.4541794
0.35299796 -2.0680246 -0.80897987 0.88856006 -0.40525413 -1.1551374 0.7019124 -0.20417033
-1.1310784 0.566873 -0.44588268 -0.6443437 0.9276005 -0.4545084 -1.759764 -0.9371136
-0.04237331 0.78957325 -0.274539 -0.6507926 0.5733928 1.2454596 1.6072264 0.6899841
1.3112953 -1.1008687 -0.6802542 1.446742 -0.23936519 0.73473495 1.2362962 -0.28051886
-1.039911 1.937907 0.45825496 0.3873394 0.04714235 2.4726813 -0.35075656 -0.025957774
-1.7551129 0.1827945 0.45818633 -1.6529866 -0.8191356 1.2304237 -0.48466337 0.7334298
0.16008611 -0.1703192 0.46037978 0.059271928 -0.62706685 -0.056530185 -0.30644882 0.700151
0.114003345 -0.124927334 -0.34629965 0.20456062 0.011896341 0.2738359 0.3750892
