pytorchmf/flumodel.pt (torch_old, 247149 bytes, 4 tensors)

virus.weight f4 [203, 20]
0	0xbee44523	-0.44583997
1	0xbef6acae	-0.4817862
2	0xbf759d19	-0.95942837
3	0x3f03ea2c	0.5152919
4	0xbf3c4c6a	-0.735541
5	0x3e8bdafc	0.2731551
6	0xbcadfe6a	-0.021239478
7	0xbf82a3ba	-1.0206215
8	0xbeadd513	-0.33951625
9	0xbf088390	-0.5332575
10	0x3ef5bb43	0.47994432
11	0xbda77f0e	-0.08178531
12	0x3f407cec	0.75190616
13	0xbc90fffe	-0.017700192
14	0x3e5a0107	0.21289454
15	0xbe323017	-0.17401157
16	0xbe1c7e12	-0.15282467
17	0xbeaa3840	-0.3324604
18	0xbdc91a71	-0.098194964
19	0x3ec40e4b	0.38292155
20	0xbe5445dc	-0.20729774
21	0x3efc4e70	0.49278593
22	0xbf407b34	-0.75187993
23	0x3eb34244	0.35011494
24	0xbea8bce5	-0.32956615
25	0x3e24ce5d	0.16094346
26	0x3e179b64	0.1480537
27	0xbe49663a	-0.19667903
28	0xbe7d8707	-0.2475854
29	0xbe2df581	-0.16988184
30	0x3ccb5b8a	0.024823923
31	0x3d299800	0.041404724
32	0x3ea0143e	0.31265444
33	0xbe8840b6	-0.2661187
34	0xbe5e97d9	-0.21737613
35	0xbe74f010	-0.23919702
36	0x3ebf0c25	0.37313953
37	0x3e63e3e1	0.22254898
38	0x3eb3bb30	0.3510375
39	0xbea00ea4	-0.3126117
40	0x3d8cde2d	0.06878314
41	0x3e33db84	0.17564207
42	0x3caebe2b	0.021330914
43	0xbf0033dd	-0.5007914
44	0xbf152db3	-0.58272856
45	0x3d4e3cbf	0.0503509
46	0xbf57df80	-0.8432541
47	0x3ddc1cdc	0.10747692
48	0x3e55e0d1	0.20886542
49	0x3d9b6378	0.075873315
50	0x3f349fbc	0.70556235
51	0xbee0a767	-0.43877718
52	0x3f4b7050	0.7946825
53	0xbeb229e7	-0.34797594
54	0x3f56ee46	0.83957326
55	0x3e223492	0.15840366
56	0xbd1fd234	-0.039018825
57	0xbf8370ca	-1.0268795
58	0x3e104c74	0.14091665
59	0x3f0e24ba	0.5552479
60	0x3d83894b	0.06422671
61	0x3e3b1bb3	0.18272285
62	0x3f9ed203	1.240784
63	0x3e473076	0.1945208
64	0x3f23ba11	0.6395579
65	0x3f19538e	0.5989312
66	0x3f21f917	0.63270706
67	0xbf03748b	-0.51349705
68	0x3d0b2239	0.033968184
69	0x3f6f220f	0.93411344
70	0x3df44c7a	0.11928649
71	0x3e79bb27	0.24387799
72	0x3e10373d	0.14083572
73	0x3cbec049	0.023285048
74	0x3cf41933	0.029797172
75	0x3e753a1f	0.23947953
76	0xbe5bba26	-0.21457729
77	0xbdf1e9cf	-0.118121736
78	0xbeb69fe1	-0.35668853
79	0xbabac5bd	-0.0014249604
80	0x3ef69d71	0.48166993
81	0xbe26982a	-0.16268983
82	0x3cb1cb5a	0.02170341
83	0xbe2e082f	-0.1699531
84	0x3d2a21f3	0.041536283
85	0xbf3c3ad4	-0.73527265
86	0x3e43e41e	0.19129989
87	0x3e754a4a	0.2395412
88	0xbecb4f3b	-0.39708886
89	0xbed62368	-0.41823888
90	0x3e734ddc	0.2376017
91	0x3ec0a592	0.3762632
92	0x3e88517e	0.26624674
93	0xbedd32c1	-0.43202785
94	0x3df73012	0.120697156
95	0xbee6e2e7	-0.45094988
96	0x3ebab5f2	0.36466938
97	0x3e58e0b9	0.21179475
98	0xbedf0a2b	-0.43562445
99	0x3e698a78	0.22806728
100	0xbd7a61d8	-0.061128467
101	0x3f145f51	0.5795794
102	0xbf2285b1	-0.63485247
103	0xbef6af7f	-0.48180768
104	0x3e71cbea	0.23612943
105	0x3b08c71a	0.0020870627
106	0x3e9d3485	0.30704132
107	0x3bfd8132	0.0077363485
108	0xbf535b88	-0.8256154
109	0x3e8f1725	0.27947345
110	0x3f0dfc5c	0.55463195
111	0x3d7b376e	0.06133216
112	0x3f86a170	1.0518017
113	0x3f37dc02	0.7182008
114	0xbf2d3249	-0.67654854
115	0x3ed6a5e8	0.4192345
116	0x3f876635	1.0578066
117	0xbf7c38e7	-0.98524326
118	0x3efd7181	0.4950066
119	0x3cab2e6e	0.020896163
120	0x3e7478c9	0.23874201
121	0xbe5fe351	-0.21864058
122	0x3e8f577b	0.2799643
123	0x3d9b6e6f	0.07589423
124	0xbd0ec59d	-0.034856427
125	0xbd36ff9e	-0.04467737
126	0xbdfde5b8	-0.12397331
127	0xbe153d85	-0.14574249
128	0x3e23c8ec	0.15994614
129	0x3db06b6a	0.086142376
130	0xbe5e006b	-0.21679847
131	0x3e22a913	0.15884809
132	0x3c801cd7	0.015638752
133	0xbe08456e	-0.13307735
134	0x3de9a22e	0.114078864
135	0x3dcf7a39	0.10130734
136	0x3c877e85	0.016539821
137	0xbd8c3827	-0.06846648
138	0xbd7179c5	-0.05895402
139	0xbd131339	-0.035907004
140	0xbed97fac	-0.42480218
141	0xbebb9e86	-0.3664438
142	0x3ea80b10	0.3282094
143	0x3e7c1dfa	0.2462081
144	0xbf929057	-1.1450299
145	0x3da6aa84	0.08137992
146	0xbef83fec	-0.4848627
147	0xbec90762	-0.39263445
148	0xbdc6a2ba	-0.096990064
149	0xbe947843	-0.28998002
150	0xbe015672	-0.12630633
151	0xbe4012a8	-0.18757117
152	0x3f2fb8b8	0.68641233
153	0x3f0a6922	0.5406667
154	0xbe9aae3c	-0.30211055
155	0x3e2b48e4	0.16727024
156	0xbea8817d	-0.32911292
157	0x3e8b565e	0.2721433
158	0x3eb74f38	0.35802627
159	0xbbb2d5b6	-0.0054576052
160	0xbd9134fb	-0.07090183
161	0xbf44d8dc	-0.768934
162	0xbe154b83	-0.14579587
163	0xbfba8de1	-1.4574548
164	0x3c5c6a05	0.013453011
165	0x3e80be48	0.25145173
166	0x3f153a76	0.5829233
167	0xbf5d596d	-0.8646458
168	0xbf8f7c3e	-1.1209791
169	0x3f18e70b	0.59727544
170	0xbf5423a9	-0.82866913
171	0x3ee0b9ae	0.43891662
172	0xbf7d9b58	-0.9906516
173	0x3f740eb7	0.95334953
174	0x3f2acd11	0.66719157
175	0xbf83877b	-1.027572
176	0xbca325b5	-0.019915441
177	0x3e53b27f	0.2067356
178	0x3fc719d9	1.5554763
179	0xbf36985c	-0.7132623
180	0x3dbf988b	0.09355267
181	0x3dee57ee	0.11637865
182	0xbe87842b	-0.26468024
183	0x3f7eb708	0.99498034
184	0x3d7e953f	0.06215405
185	0x3c6fca09	0.014635571
186	0xbe585e42	-0.21129707
187	0x3e0834fa	0.13301459
188	0x3e86fecd	0.26366273
189	0xbf008a55	-0.5021108
190	0xbef05408	-0.4693911
191	0xbf1fb79c	-0.6238954
192	0x3ed64fcc	0.41857755
193	0x3e5bd24b	0.21466939
194	0xbdec2abb	-0.11531588
195	0xbe9754f2	-0.29556996
196	0x3eaa513e	0.33265108
197	0xbf3c99a3	-0.7367193
198	0xbe924634	-0.28569186
199	0x3e88ee28	0.267442
200	0x3d239ef0	0.039946496
201	0x3ec03451	0.37539914
202	0x3eaf7155	0.34266153
203	0x3f05a00d	0.52197343
204	0x3e94c218	0.29054332
205	0x3f23be84	0.6396258
206	0x3ca8f45b	0.02062433
207	0xbe3fc04c	-0.18725699
208	0xbd9944e3	-0.07483842
209	0x3f33b9c8	0.70205355
210	0xbebf35ae	-0.37345642
211	0x3c4b46ee	0.012407048
212	0x3e5f8a21	0.21830036
213	0x3d80a3fb	0.06281277
214	0xbf241b43	-0.641041
215	0x3eb02fe8	0.3441155
216	0x3d2afbbd	0.041743983
217	0x3f05dd5d	0.522909
218	0xbd6c9624	-0.057760373
219	0x3e74c7ce	0.23904344
220	0xbeae059a	-0.3398865
221	0x3e401d2b	0.18761127
222	0x3ef43e12	0.47703606
223	0x3d8fdc5f	0.07024454
224	0x3ed6539f	0.41860673
225	0x3f081b0c	0.5316627
226	0x3ea98542	0.3310948
227	0xbe28da71	-0.16489579
228	0x3e930f70	0.28722715
229	0x3ed70bb2	0.4200111
230	0xbf0eeac4	-0.55826974
231	0x3e74fb02	0.23923877
232	0x3f2c9993	0.67421836
233	0x3e4043a5	0.18775804
234	0xbe526f55	-0.20550282
235	0xbe9d6272	-0.3073917
236	0xbea61b82	-0.32442862
237	0xbe669657	-0.22518288
238	0xbee3f66d	-0.44523945
239	0xbed07b8b	-0.40719256
240	0x3e5faac2	0.21842483
241	0xbf43513b	-0.7629582
242	0x3eaf9081	0.34289935
243	0x3ebf07f8	0.37310767
244	0x3f833a3f	1.025215
245	0xbdc5b129	-0.09652931
246	0x3e32ecd2	0.17473152
247	0x3b6fa124	0.0036564553
248	0xbf80f873	-1.0075821
249	0xbd852cd1	-0.06502689
250	0xbe03b819	-0.12863196
251	0x3f291e44	0.66061807
252	0x3e70e165	0.23523481
253	0x3e37bee7	0.17943917
254	0x3e5d8111	0.21631266
255	0xbf093fbd	-0.5361288

human.weight f4 [2727, 20]
0	0xbf547743	-0.8299448
1	0x3e998f97	0.29992363
2	0xbf9a718e	-1.2065904
3	0x3fd732b2	1.6812346
4	0xbe2269b6	-0.15860638
5	0xbf9f8da7	-1.2465104
6	0x4018b7b6	2.3862128
7	0xbd36c228	-0.044618756
8	0x3c6ab42b	0.014325182
9	0xbcf2ddd3	-0.02964679
10	0xbfcf8a33	-1.621405
11	0xbe98c342	-0.2983647
12	0x3f830fe8	1.0239229
13	0x3ebd00d0	0.36914682
14	0xc005d0dd	-2.090873
15	0x3f12ac00	0.572937
16	0x3f8e8324	1.1133771
17	0x3f897c07	1.0740975
18	0x3f372d93	0.71553916
19	0xbf21040a	-0.6289679
20	0x3cf10aa5	0.029424021
21	0xbe805aab	-0.25069174
22	0xbf6b845e	-0.9199885
23	0x3e91c2ce	0.28468937
24	0xbf36d8c6	-0.7142452
25	0xbe45e8e9	-0.1932713
26	0x3f5b5dcf	0.85690016
27	0x3e675913	0.22592573
28	0x3dfd5841	0.12370349
29	0xbfda8989	-1.7073222
30	0x3f558545	0.8340648
31	0x3e125811	0.14291407
32	0xc02b037e	-2.6720881
33	0x3f1ad312	0.6047832
34	0xbf33d476	-0.70246065
35	0x3f20daa2	0.6283361
36	0x3fd15f50	1.6357212
37	0xbe22f721	-0.15914585
38	0xbee2cac2	-0.44295317
39	0x3e70dcff	0.23521803
40	0x3f351477	0.7073435
41	0x3fa365c6	1.2765434
42	0xbfa829f1	-1.31378
43	0xbe334c56	-0.17509589
44	0xbe65207d	-0.22375675
45	0xbefcbf17	-0.4936454
46	0xbf82245a	-1.0167344
47	0xc005c95a	-2.0904145
48	0x3ed58611	0.41703847
49	0xbe8dfce7	-0.27732012
50	0xbef31462	-0.47476488
51	0x3ef360fc	0.4753493
52	0x3f8c825b	1.0977281
53	0x3f9ed6c6	1.2409294
54	0x3f20b7da	0.62780535
55	0xbf702d87	-0.9381947
56	0x3efe80bd	0.49707595
57	0x3e0b2ed9	0.1359209
58	0xbf4d2143	-0.8012888
59	0xbf1972be	-0.5994071
60	0xbf008e33	-0.5021698
61	0x3fd5edb3	1.6713165
62	0x3f43d752	0.7650043
63	0xbfacb042	-1.349129
64	0x3f53e67b	0.8277356
65	0x3f0b2218	0.543489
66	0x3e020b6c	0.1269967
67	0x3f82a087	1.0205239
68	0xbf9cd742	-1.2253191
69	0x3fcb6992	1.5891593
70	0x3ec75017	0.3892829
71	0x3f877779	1.0583335
72	0x3ebbeea1	0.36705497
73	0xbf609c2c	-0.877383
74	0x3ec90ad0	0.39266062
75	0xbe78c24c	-0.24292868
76	0x3fb3e1cc	1.4053283
77	0xbf90b191	-1.1304189
78	0x3f684ea4	0.90744996
79	0x3f24b74b	0.6434218
80	0x3e9d1b14	0.3068472
81	0x3f1b525d	0.6067255
82	0x4015034d	2.3283265
83	0x3f5ef9ed	0.87100106
84	0x3e7918fe	0.2432594
85	0x3fecf141	1.8511125
86	0xbf91f3c4	-1.1402516
87	0xbedc55ec	-0.43034303
88	0xbd862d1c	-0.06551573
89	0x4007cbba	2.1218095
90	0xbeb950ba	-0.36194402
91	0xbf89e6c2	-1.0773547
92	0x3d4c6569	0.0499014
93	0x3ec14f4b	0.37755808
94	0x3f81268e	1.0089891
95	0xbf710c18	-0.9415908
96	0x3f1900e9	0.59767014
97	0xbfc2bc67	-1.5213746
98	0x3fb17f86	1.3867042
99	0xbe6e3163	-0.23261027
100	0x4000d733	2.0131347
101	0xbfa3dc93	-1.2801689
102	0x3e06488d	0.13113613
103	0xbd7fce7b	-0.062452774
104	0x3fafee38	1.3744574
105	0xbf1c5e3a	-0.6108128
106	0x402a1dc5	2.658067
107	0x3f91dee1	1.1396142
108	0x3ef323af	0.47488162
109	0xbfb6c684	-1.4279332
110	0xbf0a4772	-0.54015267
111	0xbd6b9aee	-0.0575208
112	0x3f84e0e7	1.0381135
113	0xbf6333a6	-0.88750684
114	0x3b41ea49	0.0029589108
115	0xbfa1ceff	-1.2641295
116	0x3fd60b1f	1.6722144
117	0xbf96afcb	-1.1772398
118	0x3f8fe498	1.1241636
119	0xbf12f5a0	-0.57406044
120	0x3d8a942e	0.06766544
121	0xbe211b2e	-0.15733024
122	0x3efaf850	0.49017572
123	0x3fd89ef4	1.6923509
124	0x3e7c468d	0.24636288
125	0xbf5b6461	-0.8570004
126	0xbf260c8e	-0.64862907
127	0x3c530459	0.0128794545
128	0x3f0b5377	0.5442423
129	0x3f6900a9	0.9101663
130	0x3f177b11	0.5917216
131	0xbfc3353c	-1.5250621
132	0x3ee9b215	0.45643678
133	0xbe33228f	-0.17493652
134	0x3fd23043	1.6420978
135	0xbc9770e6	-0.018486451
136	0xbfcd9a49	-1.6062709
137	0xbf1d7b04	-0.6151583
138	0x3e041b42	0.12901023
139	0xbf36d324	-0.71415925
140	0xbeb5fd0a	-0.35544616
141	0xbfaeca23	-1.3655437
142	0xbef05cc7	-0.46945783
143	0x3ed4811d	0.41504756
144	0x3f1e1967	0.6175751
145	0x3fd7a329	1.6846668
146	0x3ef78a5a	0.4834774
147	0x3fa17ddd	1.2616535
148	0xbe4539d6	-0.19260344
149	0x3fc16e5e	1.5111806
150	0xbda81c98	-0.08208579
151	0xc005d51c	-2.0911322
152	0x3f932fc8	1.1498957
153	0x3f857361	1.0425836
154	0x3e1a53a9	0.15070976
155	0x3e634f84	0.22198302
156	0x3f88af0f	1.0678424
157	0xbf0f0186	-0.558617
158	0xbf31ffa5	-0.6953071
159	0xbe6793b9	-0.22614945
160	0xbd5970ed	-0.05308621
161	0xbf539803	-0.82653826
162	0x3f17b63a	0.5926243
163	0xbfa798e5	-1.3093535
164	0xbcb599e9	-0.022168117
165	0xbfafa903	-1.3723453
166	0xbf6f0deb	-0.9338061
167	0x3f0e49c2	0.55581295
168	0xbf96f256	-1.1792705
169	0xbef493a8	-0.47768903
170	0x3f8fded3	1.1239876
171	0x3fb6ba5a	1.427562
172	0xbcaf433e	-0.021394368
173	0x3f8702bb	1.0547708
174	0x3f9b2879	1.2121726
175	0xbebbf924	-0.36713517
176	0x3e184f74	0.14874059
177	0xbdbcc2aa	-0.09216817
178	0xbf1b5c1d	-0.6068743
179	0x3ed2f92f	0.41205737
180	0x3fd40a46	1.6565635
181	0xbefbb12c	-0.4915861
182	0xbfadce7a	-1.3578637
183	0xbf5fa383	-0.87358874
184	0x3f8d2825	1.1027876
185	0xbb848370	-0.004043989
186	0xbdcada23	-0.099048875
187	0xbe5417d8	-0.2071222
188	0x3f6ea716	0.932237
189	0x3d6c5d86	0.05770638
190	0xbfa3937f	-1.2779387
191	0xbd3c2543	-0.045933973
192	0x3eecb626	0.46232718
193	0x3ece7e88	0.4033091
194	0xbfc61b93	-1.5477165
195	0x3ef7a0b6	0.483648
196	0xbee48b9d	-0.44637766
197	0x3d495b04	0.049159065
198	0x3f9033e3	1.1265835
199	0x3e2a6c63	0.16642909
200	0x3f5e2ac7	0.86784023
201	0xbeb01e0f	-0.34397933
202	0x3f111983	0.5667955
203	0x3f9c0758	1.2189741
204	0xbec194d5	-0.37808862
205	0x3e1faf64	0.1559425
206	0x3e9ef411	0.31045583
207	0x3e9647f7	0.2935178
208	0x3e73b0da	0.23797932
209	0x3e826415	0.25466982
210	0xbf0f7fb5	-0.5605424
211	0x3f903260	1.1265373
212	0x3e39fa3d	0.18161865
213	0x3eeeed0b	0.46665224
214	0x3f0d3952	0.5516559
215	0x3eb61aba	0.35567266
216	0x3ef00471	0.4687839
217	0xbf8970ee	-1.0737588
218	0xbe4beec0	-0.19915295
219	0x3f14ea0a	0.58169615
220	0xbe979c57	-0.29611465
221	0xbf00711a	-0.5017258
222	0x3f4b262c	0.7935512
223	0x3ef1f47c	0.4725684
224	0xbff57e4c	-1.9179168
225	0xbf2ed9b1	-0.6830092
226	0xbed27171	-0.41102174
227	0x3e27020c	0.16309375
228	0xbff2f399	-1.898059
229	0xbf2062c9	-0.62650734
230	0xbf048dc3	-0.5177881
231	0xbfa9bdc9	-1.3261043
232	0x3fc9bfb1	1.5761625
233	0xbfa9972f	-1.3249263
234	0xbea0ecab	-0.31430563
235	0x3dc5a88d	0.09651289
236	0x3daf8571	0.08570374
237	0xbf8d5aa5	-1.1043288
238	0x3f2fb53c	0.68635917
239	0xbec7030e	-0.38869518
240	0x3f05b7eb	0.5223376
241	0x40235529	2.5520728
242	0xbcc8816d	-0.024475778
243	0xbbf7a750	-0.007557787
244	0xbe3ed4f5	-0.18635924
245	0x3f59ae04	0.8503115
246	0xbf623f92	-0.8837825
247	0xbe2173d2	-0.15766838
248	0x3edb4322	0.42824656
249	0xbe67d340	-0.22639179
250	0x3f67dac8	0.9056821
251	0x3f520b34	0.82048345
252	0x3f82e2b8	1.0225439
253	0x3dcfd2f9	0.10147662
254	0x3c00768d	0.007840765
255	0x3fcc91b1	1.5981961

bias_virus.weight f4 [203, 1]
0	0xbe519227	-0.20465909
1	0xbeb80840	-0.35943794
2	0x3e9dd95e	0.308299
3	0xbf109bd2	-0.5648776
4	0x3de44bb8	0.11147255
5	0xbe6abab9	-0.22922792
6	0xbeab7ae7	-0.33492205
7	0x3f07375b	0.5281884
8	0xbe78c9c9	-0.24295725
9	0xbf5c3105	-0.860123
10	0xbe5411e1	-0.20709945
11	0xbedd268c	-0.4319347
12	0x3f30828d	0.68949205
13	0xbebc690f	-0.36798903
14	0x3db1208c	0.08648786
15	0xbfd532da	-1.6656144
16	0xbeeaf58b	-0.4589046
17	0xbdfff536	-0.12497942
18	0x3e458760	0.19289923
19	0xbe897914	-0.26850188
20	0xbe870e64	-0.26378167
21	0x3d788571	0.060674135
22	0xbe242889	-0.16031088
23	0x3e804188	0.25049996
24	0xbdae41f7	-0.085086755
25	0x3e5fa78f	0.21841262
26	0xbd8cca7e	-0.0687456
27	0x3eb6c7d6	0.35699338
28	0xbe387542	-0.1801348
29	0xbf815d52	-1.0106604
30	0xbe252566	-0.16127548
31	0x3e2cda79	0.16880216
32	0xbe4043ac	-0.18775815
33	0xbe8d22c6	-0.27565593
34	0xbe6cfdc9	-0.23143686
35	0xbd938fb7	-0.07205146
36	0x3f6a33c3	0.9148523
37	0x3ed58983	0.41706476
38	0x3eb518da	0.35370523
39	0xbd12eb05	-0.035868663
40	0xbf000cc9	-0.5001951
41	0x3e570aef	0.21000265
42	0x3e45f415	0.19331391
43	0xbe5d827d	-0.21631809
44	0xbdcbe5ac	-0.09955916
45	0xbde87726	-0.11350851
46	0xbe58fda5	-0.21190508
47	0xbf3c09d8	-0.7345252
48	0xbcf21d58	-0.029555008
49	0xbe692ae9	-0.22770275
50	0xbe1a6f93	-0.15081625
51	0xbe557bff	-0.20848082
52	0xbe392a0a	-0.18082443
53	0x3ce47fc3	0.027892953
54	0x3df6d9c9	0.12053258
55	0x3cb774f7	0.02239464
56	0x3ed48f65	0.4151565
57	0x3e86d709	0.26335934
58	0x3f512c42	0.8170816
59	0xbeee9619	-0.4659889
60	0x3e43e8a2	0.19131711
61	0xbe79a94a	-0.24380985
62	0xbf208127	-0.6269707
63	0x3e40f17b	0.18842117
64	0x3e1f836c	0.15577477
65	0xbe142a2b	-0.14469211
66	0xbf1e5f80	-0.6186447
67	0x3da31270	0.07962501
68	0x3e0d99fb	0.1382827
69	0x3ebe6af8	0.37190986
70	0x3f1d53cf	0.61456007
71	0xbda6c1f5	-0.08142463
72	0x3cea4973	0.028599476
73	0x3f0ae9f9	0.54263264
74	0xbdbd1cec	-0.09234032
75	0x3e2c097a	0.1680049
76	0x3e1b169f	0.15145348
77	0xbe363414	-0.17793304
78	0x3d057b5c	0.032588348
79	0x3efdec8a	0.49594527
80	0xbe074c95	-0.13212807
81	0xbe88c1d4	-0.2671038
82	0xbe847ae9	-0.25875023
83	0xbebbc7f4	-0.3667599
84	0xbf17535d	-0.5911158
85	0x3ed77d7c	0.42087924
86	0xbdd1c8a0	-0.10243344
87	0xbf506c1f	-0.8141498
88	0x3e7891a0	0.24274302
89	0x3e77d82d	0.24203558
90	0x3d26b5c9	0.040700708
91	0xbe60d783	-0.21957211
92	0x3ed683ed	0.41897526
93	0xbd1f751a	-0.038930036
94	0x3f1de74a	0.61681044
95	0xbe2d56b9	-0.16927613
96	0xbe44f41d	-0.19233747
97	0xbecdbd72	-0.40183598
98	0x3f8ee4ac	1.1163535
99	0xbef1f158	-0.47254443
100	0xbf6b78d3	-0.9198124
101	0x3e69925d	0.2280974
102	0xbd1a38fb	-0.037651997
103	0x3eee5d76	0.4655568
104	0xbedc8d7f	-0.43076703
105	0xbeff1c03	-0.4982606
106	0xbf0d217d	-0.55129224
107	0x3eb95bca	0.36202842
108	0xbf8619f8	-1.0476675
109	0xbf06c427	-0.52643055
110	0x3e23bd03	0.15990071
111	0xbe0524c9	-0.13002314
112	0xbd34742b	-0.0440561
113	0xbf29af29	-0.662829
114	0xbe951943	-0.29120836
115	0xbe864d27	-0.26230738
116	0x3e0c81bd	0.13721366
117	0xbed6347d	-0.4183692
118	0x3f127f3b	0.5722539
119	0xbebd849b	-0.37015232
120	0xbf14c92e	-0.58119476
121	0xbee8bf61	-0.4545851
122	0xbf0f3f9c	-0.55956435
123	0xbed40ec7	-0.41417524
124	0xbe8c6041	-0.27417186
125	0xbea4f7b8	-0.32220244
126	0xbef5a9ec	-0.47981203
127	0x3dc7d46e	0.097573146
128	0x3e4f683c	0.20254606
129	0xbeddc404	-0.4331361
130	0xbec8bdc8	-0.39207292
131	0xbe342c35	-0.17594989
132	0xbdc8930c	-0.09793672
133	0x3e6bce22	0.23027852
134	0xbf8f169c	-1.1178775
135	0xbea09ee8	-0.31371236
136	0x3d11d836	0.035606585
137	0xbf00e256	-0.5034536
138	0x3c874af2	0.016515229
139	0xbece14ad	-0.4025015
140	0xbd899803	-0.06718447
141	0x3f6de1a5	0.9292243
142	0x3e4ad397	0.19807278
143	0xbea82e1d	-0.32847682
144	0x3f4ec1b8	0.8076434
145	0xbec890aa	-0.3917287
146	0xbd2d8eb9	-0.04237244
147	0xbee13c7e	-0.43991464
148	0xbe49e97d	-0.19717975
149	0x3ed5284d	0.4163231
150	0xbe3d0993	-0.18460684
151	0xbdd8aeb3	-0.10580196
152	0xbd025c13	-0.03182609
153	0x3e0f9977	0.14023386
154	0xbe5e4033	-0.21704178
155	0xbe85421f	-0.2602701
156	0xbedc88d3	-0.4307314
157	0x3deebdb3	0.11657276
158	0xbdca953f	-0.09891748
159	0xbf238077	-0.63867897
160	0xbf1ec370	-0.62016964
161	0x3e0189df	0.1265025
162	0xbdba4ad2	-0.09096302
163	0xbe6bb8d1	-0.2301972
164	0xbf6c8b9d	-0.9240053
165	0x3f02e360	0.51128197
166	0x3e64699e	0.22305915
167	0x3f13dd3d	0.5775946
168	0x3e4cb019	0.19989051
169	0x3e075779	0.13216962
170	0x3e9f4c58	0.31112933
171	0x3d916c02	0.07100679
172	0xbd0a7819	-0.03380594
173	0xbf248509	-0.64265496
174	0x3d46874a	0.048468865
175	0xbeee970e	-0.4659962
176	0xbde47c96	-0.111565754
177	0x3f01d57b	0.5071637
178	0xbe559f97	-0.2086166
179	0xbc77c44b	-0.0151224835
180	0xbd1dbf93	-0.038512778
181	0xbf45ffe8	-0.77343607
182	0xbd8aee57	-0.06783741
183	0x3d07113d	0.032975424
184	0x3f2dab63	0.6783964
185	0xbe2b9b63	-0.16758494
186	0xbe6ad781	-0.2293377
187	0xbef0899b	-0.46979985
188	0xbe60a8bb	-0.21939366
189	0x3ea218a9	0.3165944
190	0xbea45473	-0.3209568
191	0x3cf6bd42	0.030119542
192	0xbdb947de	-0.09046911
193	0x3ebb4475	0.36575666
194	0xbf0bdbce	-0.5463227
195	0xbde6b0a3	-0.112641595
196	0xbeb2b8d1	-0.3490663
197	0xbdeb8384	-0.11499694
198	0x3e9539c6	0.2914564
199	0xbe4d3ee8	-0.20043528
200	0xbe9b6b29	-0.30355194
201	0xbe9516de	-0.2911901
202	0x3f67b42e	0.9050931

bias_human.weight f4 [2727, 1]
0	0xbf126d28	-0.5719781
1	0xbfbc25f1	-1.4699079
2	0x3f44ae4f	0.76828474
3	0xbee27db9	-0.44236544
4	0xbe459510	-0.19295144
5	0xbe95fa26	-0.2929241
6	0x3edecc09	0.4351504
7	0xbefdc8da	-0.495673
8	0xbfb48e71	-1.410597
9	0x3f3a4117	0.7275557
10	0xbf714527	-0.94246143
11	0x3f0e307e	0.55542743
12	0xbe89abf3	-0.26889
13	0xbf756fa1	-0.9587346
14	0xbcebc61b	-0.028780987
15	0xbf37f14a	-0.7185255
16	0xbf328ade	-0.69743145
17	0x3f2b622f	0.6694669
18	0x3ea9aa1c	0.33137596
19	0x3e24248e	0.1602957
20	0x3e99d5e0	0.30045986
21	0x3f43f3df	0.7654399
22	0x3df8bb21	0.12145067
23	0x3f51e9e2	0.819975
24	0x3dedde40	0.116146564
25	0x3ea44960	0.3208723
26	0xbf8bbfcd	-1.0917908
27	0xbebbf6b9	-0.36711672
28	0x3f16ef7e	0.58959186
29	0x3d4396b2	0.047751136
30	0xbb946ff5	-0.004529948
31	0xbe2c51a3	-0.16828017
32	0x3e1a5e9f	0.15075158
33	0xbe41c4e3	-0.18922763
34	0xbec53b23	-0.3852168
35	0x3f5be70d	0.8589943
36	0x3fae36ff	1.3610533
37	0x3e258780	0.1616497
38	0xbf9871ab	-1.1909689
39	0xbf7994fb	-0.9749295
40	0xbf1054e6	-0.56379545
41	0x3eda1615	0.42594972
42	0x3f85c24d	1.0449921
43	0xbeb9ed41	-0.36313823
44	0xbebd0521	-0.36917976
45	0x3f36764a	0.71274245
46	0x3e05a92a	0.13052812
47	0xbf90535b	-1.1275438
48	0xbd71e436	-0.05905553
49	0xbdce3fe4	-0.1007078
50	0x3f0d9770	0.553092
51	0x3f366ec4	0.71262765
52	0x3f80bf85	1.0058447
53	0x3f1e5eb7	0.61863273
54	0xbe7f04f4	-0.24904233
55	0xbf9a5859	-1.2058212
56	0x3f2d4623	0.67685145
57	0xbfb0e881	-1.3820955
58	0x3f5da6c1	0.8658257
59	0x3db9a6ae	0.09064995
60	0xbf7c908c	-0.9865806
61	0xbe6991ad	-0.22809477
62	0x3e6b2892	0.22964695
63	0x3ee91da0	0.45530415
64	0x3f742076	0.9536203
65	0xbf7fdf19	-0.99949795
66	0xbf70c234	-0.9404633
67	0xbf0e870f	-0.55674833
68	0xbd917023	-0.071014665
69	0xbc03c352	-0.008042173
70	0xbed98b6c	-0.42489183
71	0x3eff48b1	0.49860147
72	0x3e22c189	0.1589414
73	0x3fdc1b66	1.7195861
74	0xbf91a611	-1.1378804
75	0x3f470cbe	0.7775382
76	0xbf71a251	-0.943883
77	0xbeb6231a	-0.35573655
78	0xbe33af3c	-0.17547315
79	0x3fec5349	1.8462917
80	0x3e12e79e	0.14346167
81	0xbe6e3c98	-0.23265302
82	0x3f54303b	0.82886094
83	0x3e874819	0.26422194
84	0xbf110533	-0.5664856
85	0x3f118d00	0.56855774
86	0x3eefb806	0.46820086
87	0x3f814642	1.0099566
88	0xbe3caa0f	-0.18424247
89	0xbf8795ea	-1.0592625
90	0xbfb5ccf7	-1.4203175
91	0xbed917f6	-0.42401093
92	0x3d0726d8	0.03299603
93	0xbf81025e	-1.0078847
94	0x40115d84	2.2713327
95	0x3fdbd9c5	1.7175833
96	0xbe2463d1	-0.16053702
97	0xbd436c1d	-0.047710527
98	0xbe980455	-0.29690805
99	0x3e40da5a	0.18833295
100	0x3f55f1e7	0.8357224
101	0x3f02d0dc	0.51099944
102	0xbf21d0a2	-0.63208973
103	0xbf390043	-0.72266024
104	0x3ecde3cb	0.40212855
105	0xbeebd1ff	-0.46058652
106	0x3eed203c	0.46313655
107	0xbfdd3c70	-1.7284069
108	0xbd21accf	-0.039471444
109	0x3f6b52d7	0.9192328
110	0x3ef2313c	0.47303188
111	0xbe848f78	-0.25890708
112	0xbfb3af7a	-1.4037926
113	0x3fb01e19	1.3759185
114	0xbf03151e	-0.512041
115	0x3d5ba4bc	0.0536239
116	0xbddd34ae	-0.108010635
117	0xbd8824e5	-0.06647662
118	0xbf619210	-0.881135
119	0xbf11d459	-0.5696464
120	0x3de68667	0.11256104
121	0xbfb51135	-1.4145876
122	0x3ff33fd0	1.9003849
123	0xbf49962c	-0.7874477
124	0x3f3035a8	0.6883187
125	0xbe86409a	-0.26221162
126	0xbf697f42	-0.91209805
127	0xbeca9eea	-0.39574367
128	0xbf8114ed	-1.0084511
129	0x3f1e07cf	0.61730665
130	0xbed9ebb8	-0.42562652
131	0x3f12d1dc	0.5735147
132	0x3cf0c958	0.029392883
133	0xbeee3331	-0.4652343
134	0x3f36a94f	0.71352094
135	0x3fd0473a	1.6271737
136	0x3e92fc12	0.2870794
137	0xbecb9dce	-0.39768833
138	0xbeea6f1f	-0.45787904
139	0x3f30fa4d	0.6913193
140	0x3d5f6741	0.05454183
141	0x3d2aff43	0.041747343
142	0xbeb61a4e	-0.35566944
143	0x3eb10bf3	0.3457943
144	0xbf429651	-0.76010615
145	0x3f7fabf2	0.9987174
146	0xbd749f1c	-0.05972205
147	0xbd8c1254	-0.06839433
148	0x3f0baf51	0.54564387
149	0x3f355761	0.70836455
150	0x3d43a192	0.047761507
151	0xbcc03a8c	-0.023465417
152	0xbe8cbeb5	-0.27489248
153	0x3cbfab59	0.023397135
154	0x3e89a264	0.26881707
155	0x3d91bd68	0.071162045
156	0x3f0a88af	0.5411481
157	0x3eeadfbb	0.45873818
158	0x3fb76fea	1.4331028
159	0x3da4e69b	0.08051797
160	0x3e0cacec	0.1373784
161	0x3f17c874	0.5929024
162	0x3db0045e	0.08594583
163	0x3e857d96	0.26072377
164	0xbf13b068	-0.5769105
165	0xbecd9a31	-0.401567
166	0xbe52ae62	-0.20574334
167	0xbf0724c9	-0.52790505
168	0xbe8d2d59	-0.2757366
169	0xbcc1bf0d	-0.02365067
170	0x3ee7b36b	0.45254073
171	0x3e855e03	0.26048288
172	0x3f9c2eb3	1.2201751
173	0xbee1c79d	-0.44097605
174	0x3d36222a	0.044466175
175	0x3f05eb2f	0.52311987
176	0x3efc751c	0.49308097
177	0x3e9cea47	0.3064749
178	0xbdf6bdc1	-0.120479114
179	0xbfa6d618	-1.3034086
180	0x3e87cc95	0.2652327
181	0x3eff503b	0.49865898
182	0x3dfafec8	0.12255627
183	0x3e164714	0.14675552
184	0xbd14b2bf	-0.036303278
185	0x3fc188bd	1.5119854
186	0x3f46898f	0.7755365
187	0x3ec4e7d9	0.38458136
188	0x3eb588d6	0.3545596
189	0x3dbf41f3	0.09338751
190	0x3e58d558	0.21175134
191	0xbc6e3d57	-0.014540992
192	0xbce13491	-0.027490886
193	0x3f0a7241	0.5408059
194	0x3e116a15	0.14200623
195	0x3fae444f	1.3614596
196	0xbf0f8cd7	-0.5607428
197	0xbfe2b0f5	-1.7710253
198	0x3ec73a15	0.389115
199	0x3f226d85	0.63448364
200	0xbf1842b9	-0.5947681
201	0x3da294f0	0.07938564
202	0x3b008e28	0.0019615982
203	0x3eb2d5ed	0.34928837
204	0x3f09eb84	0.53874993
205	0x3f10149e	0.5628146
206	0x3f917756	1.1364543
207	0x3f1636aa	0.5867716
208	0x3dadb604	0.08481982
209	0xbed92ebe	-0.42418474
210	0xbdbea68a	-0.093091086
211	0xbf151ab1	-0.5824385
212	0x3e5a0862	0.2129226
213	0x3def1cea	0.11675437
214	0x3f7c7964	0.9862273
215	0xbd588d71	-0.052869264
216	0xbe914e5f	-0.28380105
217	0xbf802e12	-1.001406
218	0x3f24626c	0.6421268
219	0x3d7b45d8	0.061345905
220	0x3ea69955	0.32538858
221	0x3dce7e66	0.10082702
222	0xbee40cfd	-0.4454116
223	0x3e53b42c	0.20674199
224	0x3f00cdb3	0.5031387
225	0x3f0dd959	0.5540977
226	0xbf664306	-0.8994602
227	0xbecc3a15	-0.39888063
228	0xbf075100	-0.5285797
229	0x3e7d6bd3	0.24748163
230	0xbe06aaa9	-0.13151039
231	0xbf65fd05	-0.898392
232	0x3f68b282	0.9089738
233	0x3cbbec8f	0.022939948
234	0xbde839ea	-0.11339171
235	0x3f8ba3eb	1.0909399
236	0xbf2a3fde	-0.66503704
237	0xbefa3323	-0.4886714
238	0x3e2c9624	0.16854149
239	0x3f783cc8	0.96967745
240	0xbe965777	-0.29363605
241	0xbe3eb37d	-0.18623157
242	0xbf189734	-0.5960572
243	0xbe942177	-0.28931782
244	0x3e9f7c58	0.31149554
245	0xbf1c845f	-0.6113948
246	0x3ebd6d66	0.36997527
247	0xbfa957d2	-1.3229926
248	0xbf0a634d	-0.5405777
249	0xba10af6e	-0.0005519305
250	0xbf2f7fe9	-0.6855455
251	0x3cdd1c91	0.02699116
252	0x3f10636c	0.56401706
253	0x3fa24973	1.2678665
254	0x3eef4468	0.46731877
255	0x3ebb3c3c	0.36569393
