pytorchmf/flumodel.pt (torch_old, 377855 bytes, 4 tensors)

virus.weight f4 [4450, 20]
00000000: e775 043f fbea e8bd 1fee abbe f6a3 a23f
00000010: 57b9 06bf bd23 21bf db2a e83f 3396 acbd
00000020: 177c 693f 3557 e4bf 148e ae3f d493 edbe
00000030: 2c78 573e 689a 093f ec2d c93f c98f b2bf
00000040: 1e6b d83d 4883 983f ecc5 bfbe fd96 453f
00000050: f21a 3d3f 0bea 903e 2fd0 2c3e e6f3 883d
00000060: f14f 8dbf 6a0b 07bf e87c 363f b339 503e
00000070: 9b7f 68bf d2a7 803e 0181 5c3f deb6 87bd
00000080: fc99 313f 7314 72bf 72c4 12bc 1d2b 103f
00000090: af3c 60bf 0a2d 85be e1f0 01bf 7360 74bf
000000a0: 1874 d2be b8a8 9fbe 2010 5cbf 033c b2be
000000b0: 5d4c e7be c924 ad3e 5db8 5b3e 7168 f1be
000000c0: b459 97bd 345d 813f 1267 743f 2752 143f
000000d0: 785c c3bf dae5 c7be c476 533f 619b 823f
000000e0: 818c 813f a722 39bf 2ec9 c2be 738e 303f
000000f0: 0392 02bf af72 2abf 5e45 403f f6e3 b83f
00000100: 0cae d43a 0e08 abbe 3c95 80bd 8cdf 413f
00000110: 3627 1bbf c6ea 41ba eccb 2f3f 05b8 9abe
00000120: ed2e edbe 7cfd 8a3d 6021 7dbf a2b7 03bf
00000130: 9dad 5bbe 233c afbd 1626 3c3f 0844 d4bf
00000140: 9460 d83d 6703 46bc c1c3 3e3e c04c bc3d
00000150: d1d1 6dba 4693 e03d 8788 f4be d22a a1bf
00000160: 9284 a23f e9a9 26bf fc05 65bf 83b5 2c3f
00000170: d705 0d3f 931d a13e 6a09 32bf af59 ab3f
00000180: 101e 813f 1c67 49bf 925c d93f 58a3 973e
00000190: fe47 9dbf 6a04 0940 aa77 f2bf 5b9d 17be
000001a0: 21cd febe 9f82 36bf e5df 4f3f 2c3e 883f
000001b0: 3b3d 58bf a17b 60be 4c8e b53e 1f0e dabf
000001c0: ae32 953f 6492 553f 3a6f 8abf 004d b03b
000001d0: 04c0 293f d8e3 66bf 62ff 96bc 7509 b33e
000001e0: 80d9 b9bf 5811 98be b1fb 9f3e ecdf d8be
000001f0: ed62 a03e feab 0a3f cbda 86bf 055c b83f
00000200: 5b15 28bf 2a73 9fbf 0e0d 113e 3959 35bf
00000210: ff05 7bbf 82f2 4b3e 7672 9a3f 8bcf 9f3f
00000220: a43d 10be 332f 173f 4287 c43f 8063 4fbf
00000230: 2e10 58be ba28 913e 3dc0 3e3e 6d43 b63f
00000240: 6bda c83f 44f2 d83f ea35 4cbf c4b8 983f
00000250: e134 0b40 e046 d4bd ab6a 8bbf 7e03 f43f
00000260: ca92 36be b082 7dbf 5416 cdbf dfa0 44bf
00000270: adde 0f3e 8d9c 65bf 7832 29c0 c180 2bbc
00000280: 3b49 56be 3d0b 15be 16a4 bb3f 4a0b f0bf
00000290: a922 66be 2408 ac3f 6ccf 7f3e 4b4a f9bf
000002a0: 820c 0e3f 73fb 00bf 8999 5ebe 035d 03c0
000002b0: 529a ea3e ee9b d4bd bc82 833e 7362 f3be
000002c0: 8471 6d3e 64f7 3bbe 6974 1cbf a2b0 96be
000002d0: cf5c 103f 6292 82be 47dc 9cbf 3420 92bf
000002e0: f589 763e 4958 5bbf 8cc8 29bf 75f3 67be
000002f0: df17 10be 48f4 ffbe f2f3 b2be 1ae5 863f
00000300: 3f13 5bbf a366 3fbf 0b6b 61bd 7c1e 023f
00000310: a54a 5a3f b1a8 62bf 50ad 113f ec99 00c0
00000320: a9ea 31bf ff33 c83e 2a4e ecbd ef40 393f
00000330: 5f6a 70be 2e95 87bf a0d8 92bf 2257 083f
00000340: 6d05 6b3e a3bd 4e3f 68a3 18bf ba98 c5bf
00000350: 32ef 8d3e 3eb7 edb9 b31f e2be 3594 893f
00000360: 42a1 cd3e 992f dcbe 4385 923f 2083 d0be
00000370: 9b1b 093f 076e bb3f 642a a63f 9ffd 1a3e
00000380: 30eb e7bd 0020 2d3f 6917 423f 6373 c5bd
00000390: 9a63 a4be 5e34 ecbf 42c0 77bf c24f 08bf
000003a0: 0585 5cbc c26d 31be 5c0a 2c3f fd19 24bf
000003b0: c47c 5fbb fc32 e03f c0ed b7bf 1b69 823e
000003c0: e2f5 f9bd 41d1 fc3e 51bd 113f a280 06c0
000003d0: 05c1 38bf 4f6f d23d f780 47bf 14ba 9f3e
000003e0: 3f60 873f 7740 2f3f f054 5c3f 2ceb 263f
000003f0: f5ae a53c a7ed d3bd 5863 d6bf 2765 6dbd
0.51742405 -0.11372944 -0.3358011 1.2706287 -0.52626556 -0.6294516 1.8138078 -0.08427086
0.9120497 -1.7839113 1.3637109 -0.46401846 0.21041936 0.5375123 1.5717139 -1.395013
0.10567306 1.1915064 -0.3745569 0.77183515 0.7386924 0.2830356 0.1687629 0.06687145
-1.1040021 -0.5275179 0.7128434 0.2033451 -0.9081971 0.25128037 0.86134344 -0.06626676
0.69375587 -0.94562453 -0.008957969 0.56315786 -0.87592596 -0.26010925 -0.5075818 -0.9545967
-0.41104198 -0.3118341 -0.85962105 -0.3481141 -0.45175448 0.33817127 0.21457048 -0.47149995
-0.073901564 1.0106568 0.9546977 0.57937855 -1.5262594 -0.3904255 0.82603097 1.0203668
1.0121003 -0.723185 -0.38044113 0.6896736 -0.51004046 -0.66581243 0.75105846 1.4444568
0.0016226186 -0.33404583 -0.06278464 0.7573173 -0.60606706 -0.00073973497 0.68670535 -0.3021852
-0.46324864 0.067866296 -0.9887905 -0.51452076 -0.21452947 -0.08556392 0.73495615 -1.6583261
0.10565296 -0.012085772 0.18629362 0.091943264 -0.00090720976 0.1096559 -0.47760412 -1.2591193
1.2696707 -0.6510301 -0.89462256 0.67464465 0.55087036 0.31467876 -0.69545615 1.3386744
1.0087299 -0.7867296 1.6981375 0.2961681 -1.2287595 2.1408944 -1.8942769 -0.1480612
-0.49765876 -0.7129306 0.8120101 1.0643973 -0.8446843 -0.2192216 0.35460126 -1.703556
1.1656091 0.834265 -1.0815194 0.005380273 0.6630862 -0.9019141 -0.018432323 0.34968153
-1.4519501 -0.29700732 0.31246713 -0.4235834 0.31325474 0.5416869 -1.053552 1.4403082
-0.65657586 -1.245702 0.14165136 -0.7083927 -0.98056024 0.19916728 1.2066181 1.2485212
-0.14086014 0.59056395 1.5353777 -0.810112 -0.21099922 0.28351384 0.1862802 1.4239327
1.5691656 1.6948934 -0.79769766 1.1931386 2.1751025 -0.10365081 -1.0891927 1.9063566
-0.17829433 -0.9902754 -1.6022439 -0.7680797 0.14049788 -0.89692 -2.6437054 -0.010467709
-0.20926373 -0.14555068 1.465945 -1.8753445 -0.2247416 1.3439984 0.24981469 -1.9475797
0.55487835 -0.5038368 -0.21738257 -2.052552 0.45820862 -0.10381304 0.2568568 -0.47536048
0.23187834 -0.18356091 -0.6111513 -0.29431635 0.56391615 -0.25502306 -1.2254723 -1.1416078
0.24076064 -0.8568159 -0.66321635 -0.22651465 -0.14071606 -0.4999106 -0.3495174 1.0538666
-0.8557624 -0.74765986 -0.055033725 0.50827765 0.8527015 -0.8853865 0.5690508 -2.0093946
-0.6949869 0.3910217 -0.11538346 0.72364706 -0.23478077 -1.0592401 -1.1472359 0.53257954
0.22951289 0.8075811 -0.5962434 -1.5437233 0.27721554 -0.0004534069 -0.4416481 1.0748354
0.40162092 -0.43005064 1.1446918 -0.4072504 0.5355775 1.4642953 1.2981687 0.15135811
-0.11324155 0.67626953 0.7581697 -0.09641149 -0.3210724 -1.8453481 -0.9677774 -0.532467
-0.013459449 -0.17327026 0.6720331 -0.64102155 -0.0034101466 1.7515559 -1.436943 0.25470814
-0.122051015 0.49378398 0.569295 -2.1016011 -0.72169524 0.10275137 -0.7793116 0.31196654
1.0576247 0.6845774 0.86067104 0.65202594 0.020225028 -0.10348063 -1.6749067 -0.057957795

human.weight f4 [36, 20]
00000000: d464 4fbe cf0d a3be fecd 083e fcdb 90bd
00000010: 7079 7e3d 971c b13d da59 f33d 1b60 963e
00000020: 32c7 1d3e 8462 3dbe 6988 9bbe 7861 9fbe
00000030: 7424 b1b7 490e 25be c23f fbbe e04e 533e
00000040: 97ab 82be e055 efbb 0a68 353e d712 ec3d
00000050: 3505 c9bd b4ff d5bd b1fc 64bd b348 f23d
00000060: 7429 0f3e ec0b e33c cdf2 f1bd 0188 e8bd
00000070: c943 65be 0160 c93e 06a5 083e 1353 b63d
00000080: 60ad 79be 52e9 8b3c d06c 993e e04b 253f
00000090: 3d7b 6f3d 7d81 dbbd ecd1 1abd 2d84 f6be
000000a0: 7bb7 20bf 2127 233f 08f4 573c 97a1 e8bd
000000b0: 538b d53e 9cf8 8fbc 5c36 f1be 1309 c63e
000000c0: ea11 91bd b6b1 09bf b675 babe a0b3 07bf
000000d0: 60fe 983d 917a 623e 4077 81be f67d 473d
000000e0: fe63 cdbd bd03 3dbe 33ed f7bc 4b19 003e
000000f0: f319 49be fa84 853f a17c e4bc f97a 2bbf
00000100: cecb cfbd a0f3 0c3e 272e a23e 542c 0fbe
00000110: ad67 c1be 99db 3bbf f347 d03e 9b06 4f3e
00000120: c248 4dbf 7576 133f a021 9abe 1583 cdbe
00000130: 4e82 6d3e f809 5c3e 0429 babe 9302 d9be
00000140: 69fc 6cbd 6d5d de3c 309e 72bd c881 093e
00000150: 9868 57bc 7132 5e3e 7595 55bd 387b 0c3c
00000160: 73cc 70be 7eda aa3c eeda b7be fa1f 15bd
00000170: 9c54 90bd 6d43 77be 9add 7dbe ac37 dabd
00000180: ab6c b7bc 2bf3 523e b44b 74bd bd7e 593d
00000190: e851 143e 71b0 32bf b326 f7be 5806 d23e
000001a0: 7cd9 17be 3f19 2cbd 6022 2a3e 00dc 1bbd
000001b0: 2101 bb3e 2661 b4be 46b3 af3d df35 a0be
000001c0: e5ce 8c3e e3df 043e 00d5 d0bd a043 9a3d
000001d0: 85a1 3abe c8f7 27bd 207d 333e bd2b 123e
000001e0: 2252 2fbe 83c4 01be d421 3d3e 68c4 1d3e
000001f0: 452f 7bbf fd63 c43d bb71 1e3d 7810 b33d
00000200: 6acd 57be c2ce 573d 216d 0dbe ecd1 f2bd
00000210: 6b6b a63c 0d3a debe 5fcd 45bd a989 9c3e
00000220: dfb5 823c 34d5 ef3d e8cf af3e 6b70 2b3e
00000230: 6c0f 7a3f 87f2 fe3e 66fd 8dbc 5b69 b6be
00000240: e4ca 293f f632 823f 19bd 343f ef6b 373d
00000250: 19fe a43e 2f87 ea3e 39ec f4bd b836 13bf
00000260: 9710 6ebe fe73 b83d 1c06 d73e d8ac dd3d
00000270: 309e ac3d 5213 d23d e94d 97be 9d12 f3be
00000280: 726a ebbe 5e87 133e bb15 6b3f c5e8 4bbe
00000290: ea38 babe a30f de3c aa68 08bf 2691 563e
000002a0: 2b67 58bc d47b e6be 86c6 38be be0e 123f
000002b0: 7513 55bd 53bd abbf f783 4fbe f859 eb3e
000002c0: 8cce fabe 8ad3 dabd 5c9c 86bd da12 b93f
000002d0: d283 5abe 34b0 16bf f97a 9e3d cceb 57be
000002e0: a0d2 99be 94dd dd3e dfa6 5fbf eab6 133d
000002f0: 799d ca3d edd0 2f3f 4897 f8bd 70e1 a93e
00000300: 2f84 f23e 28f8 55be 25b5 30be 93d1 2b3f
00000310: 5b81 b2bd c6d4 f9be 5fa3 cc3d 89f5 013e
00000320: cbb7 07be d662 b4be 7502 283d 1741 ca3e
00000330: 0005 943c f6cd 013f 00b8 b53e 2837 443d
00000340: 522d 093e 12c6 77be ab24 863d e86f 033f
00000350: 502a 3ebd e58f 883d 8535 31be 5564 59ba
00000360: 1f4b 58bf 589e bbbe c512 593e cb47 0d3f
00000370: df21 913e 0bd7 873d b474 51bd 3d5e e9bd
00000380: 4646 70be db59 20be f5fa a03d 7d7e a93e
00000390: 18bc 0abe c807 5f3b 3dc2 11be 58ad 94be
000003a0: e654 c0bd c386 89bd 02ed afbd a441 febe
000003b0: 8ca1 a6bd e7af 063d fa9c 58bd cd87 f1bd
000003c0: 518f 9cbc da46 8dbd 61c4 90bf 7c2d 66be
000003d0: e52b 833e 2293 aa3d 4c95 eebd 14a0 f03c
000003e0: 7c43 8dbe 55bb b1bc 5b25 823e 9dce b63e
000003f0: e87f adbe 9665 8f3e f1cb 74be dac7 823e
-0.20253307 -0.31846473 0.1335983 -0.07073209 0.06212753 0.08648031 0.11882372 0.29370198
0.15408018 -0.18494612 -0.3037751 -0.3112905 -2.1117019e-05 -0.1611873 -0.4907208 0.20635557
-0.25521538 -0.0073039383 0.17715469 0.11527031 -0.09815446 -0.10449162 -0.055905048 0.118302725
0.13980657 0.027715646 -0.11813889 -0.11354066 -0.22389139 0.39331058 0.13344201 0.08902564
-0.24382544 0.01707903 0.2996583 0.645689 0.05846714 -0.10718057 -0.037797853 -0.48147717
-0.6277997 0.6373158 0.01318074 -0.11358946 0.41707858 -0.0175746 -0.47111785 0.38678798
-0.07083495 -0.5378679 -0.3641793 -0.5300846 0.07470393 0.22117068 -0.25286293 0.04870411
-0.100288376 -0.18458457 -0.030264473 0.12509649 -0.19638805 1.0431206 -0.027891459 -0.66984516
-0.101462945 0.1376481 0.31675836 -0.13981754 -0.3777441 -0.73381954 0.40679893 0.20217364
-0.80189145 0.57602626 -0.3010378 -0.4013907 0.23194239 0.21488178 -0.36359417 -0.42384776
-0.057857905 0.027144158 -0.05923289 0.13428414 -0.013147496 0.2169893 -0.052144486 0.0085742995
-0.23515491 0.020856138 -0.35909218 -0.03640745 -0.07047388 -0.24146815 -0.24791566 -0.1065515
-0.022390684 0.20600574 -0.05964251 0.053099383 0.1448437 -0.6980048 -0.48271713 0.41020465
-0.14829057 -0.042016264 0.16614676 -0.038051605 0.365243 -0.35230368 0.085791156 -0.312911
0.27501598 0.12976031 -0.101968765 0.0753243 -0.18225677 -0.041007787 0.175282 0.14274497
-0.17121175 -0.1267262 0.18469936 0.15406954 -0.98119 0.09589384 0.03868268 0.087433755
-0.21074453 0.052687414 -0.1381116 -0.11856446 0.020314893 -0.43403664 -0.04829156 0.30573776
0.015955864 0.11710587 0.34338307 0.16742103 0.9767978 0.4979441 -0.017332744 -0.35627255
0.6632521 1.0171802 0.7060104 0.044780668 0.3222511 0.45806262 -0.119591184 -0.5750537
-0.23248516 0.09006499 0.4199685 0.10823983 0.08428609 0.10257591 -0.29551628 -0.47475138
-0.4597965 0.14407107 0.91830033 -0.19913013 -0.36371547 0.027107066 -0.53284705 0.20953807
-0.013208191 -0.45016348 -0.1804448 0.57053745 -0.05202051 -1.3417152 -0.20265184 0.45967078
-0.48985708 -0.10684879 -0.06572792 1.4458878 -0.21339348 -0.58862615 0.07738299 -0.21086043
-0.30043507 0.43333113 -0.87364 0.036063112 0.09893317 0.6867817 -0.121382296 0.33179808
0.47366473 -0.20895445 -0.17256601 0.6711666 -0.08716079 -0.48795146 0.09992098 0.1269132
-0.13253705 -0.35231656 0.04101797 0.39502785 0.01806879 0.50704896 0.35491943 0.047904164
0.13396195 -0.24196652 0.065499626 0.5134263 -0.04642707 0.06668071 -0.17305572 -0.00082928437
-0.84489626 -0.36644244 0.21198566 0.5518767 0.28346154 0.06632813 -0.051136687 -0.11394928
-0.23464307 -0.15659277 0.07860366 0.33104315 -0.13548315 0.0034031738 -0.14234252 -0.290385
-0.09391193 -0.06715157 -0.085901275 -0.49659455 -0.08136281 0.032882597 -0.05288408 -0.1179348
-0.019111307 -0.068982795 -1.130993 -0.22478288 0.25619426 0.083288446 -0.1164957 0.029373206
-0.2759055 -0.021695772 0.25419125 0.35704508 -0.33886647 0.2800719 -0.23905922 0.255431

bias_virus.weight f4 [4450, 1]
00000000: 1d3a 0b3f 58d7 063f 0e09 053f f989 253f
00000010: 07aa 963f 0f1c 42be af8b 0d3e cc60 b4bf
00000020: 2175 babf e961 e1bd e7e7 d6be 4b6d 6e3f
00000030: a364 2b40 e857 c53d de38 2ebf 3fa0 3d3f
00000040: 43e9 af3f edf9 0e3e 6b7b c83e 5c7c 09be
00000050: adc7 9d3e bd88 3b3f 617d 28bf 0f9c 0dbf
00000060: 766c 22bf 4548 3b3f 75ab 953f 57d5 27be
00000070: 6f61 cdbe 92d1 c63e b002 d1bf c17a cbbe
00000080: 3450 d93e ba1e 643f 7549 dd3e 4898 4f3f
00000090: 149b 2bbf 5861 54bf 4bde 6d3f d0e5 debf
000000a0: a6b9 6e3e 19b1 103d 852c 84bf 5a28 9ebf
000000b0: 5d59 29bf 5640 f9be 51c0 94bf f114 813f
000000c0: d822 873e 6b71 153e 48d5 273f 2f8d 823f
000000d0: d908 1c3f a17f 363f a28a 0dbe bea7 e83e
000000e0: 58fa 383e 1953 cdbf 25a1 483d de8a 993f
000000f0: c54f 9d3f c39b 96bf ff58 c53f 7f00 ee3e
00000100: 8a07 0fbf 7b0f b63e 8055 abbf ec4f 96bc
00000110: ef4d aabe cb1b 093f b66a 65bf 7eaf 303f
00000120: ecfd 9abf 4e56 28bf 9734 08bf b181 d6be
00000130: a6d8 19bf 3805 023f fd7f 7b3e 47b1 823f
00000140: bc51 8c3f 0421 1fbf 37be 29bd 3c7e 0f3e
00000150: 5a37 b53f 431e c93f f947 cf3f 6e49 063f
00000160: a8fd aabe 4db8 95bb 4aad f6be 873b 313f
00000170: 4110 323f 1958 433f 5900 f2bd f760 d43f
00000180: 2fd5 af3e 8b71 87bf d11a 3bbf f88d 92bf
00000190: afae 773e 9146 d43e 29f7 4bbf 566e 9f3f
000001a0: 3f47 98bf c89d 47bc 4d5f a0bf 67e9 093e
000001b0: 455a 9d3e 758c 583f fd4e 6b3d f036 273d
000001c0: 7891 94be 72de 5c3f 7c4f 2abf 9239 1ebf
000001d0: e61b 2f3f a06c 7f3d 5c62 29bf 42a4 8bbe
000001e0: 8207 3e3f 45ec cabe f707 dfbf e0a2 89be
000001f0: 4e72 0abd 99ec 043f ffb2 9f3f 170e 2e3e
00000200: 1e77 583e 83c2 f53b aad2 67be b466 c53f
00000210: 1931 afbf 90ff 96be 9907 bfbe 3e15 3b3f
00000220: d348 cfbe 82c8 91bf ffe0 31bf 4703 c53f
00000230: 26c1 bc3d be30 a73f 722d a6bf 3f00 eebd
00000240: 14fa fe3f fd3e 02bd 3397 6c3f 7477 87be
00000250: 8615 83bf d605 0d3f e2a2 0cbf 6774 623f
00000260: ab0a 243e 9607 823f 00e2 b23d cad9 0040
00000270: b363 963e b00f 05c0 6a10 c0be 3ef7 b0be
00000280: 1b89 873f 721e 0abf 3323 37bf 72bd aebe
00000290: b420 e9bf b479 533f f998 983f 9a2b 92bf
000002a0: 1c81 3bbf 1451 52bf 2ddf 01c0 d0e7 98bf
000002b0: ceec a9be c5b1 c03e f82d a03c 406e 9d3f
000002c0: ae82 5ebe 19ca 8bbd 14e7 3f3f 7703 f03e
000002d0: 1c8a ccbe 1767 ca3f 20e2 0240 1109 163f
000002e0: dc22 98bf 1f6d 5bbf 21c3 9cbe 8180 a1be
000002f0: 182f d83f 6c30 82be 8a1e 2e3d 5e57 e23d
00000300: e401 c93f 6771 303f 6e3f 883f cafb fa3f
00000310: a07c efbf 34f5 73be 5038 ac3f c336 4cbf
00000320: 9b6b c13f cad1 17bf 1476 aebe 7c98 793f
00000330: b060 dfbf 6d2e d1bf d938 503d ff8d 6bbd
00000340: f34c 953f 3139 b7be 67ea 963f aca1 f73e
00000350: 508e 093f 4448 d53f 4b06 1dbf 7d93 193f
00000360: 2349 52bf 2298 fe3f cdd3 7c3e 13eb 903f
00000370: 5d1e c43e 6bbd 0a3f b63c fb3e ca0a 9ebf
00000380: 290f a83f 5f18 3f3d 1653 2040 4243 06c0
00000390: 7ab4 29bf 7cd8 f1bd 78f4 30c0 cff3 d63f
000003a0: 0f86 f3be 9b17 9fbf a282 0a3f 3576 4cbf
000003b0: 4ca5 7ebf 07b7 8dbf 396e dbbe 6760 d73f
000003c0: b374 5fbc 2dfc 673f 0701 97bf 5752 2ebf
000003d0: 68e1 acbf 71d3 dabe 2ae4 8f3e f88a 3a3f
000003e0: 3d3f d93f a1df 81bf 82a9 c63f 4c65 28bd
000003f0: adc9 02c0 c2b1 113e e74a 3cbe d1ef 3fbf
0.5438555 0.5267234 0.5196694 0.64663655 1.1770638 -0.18956016 0.13822816 -1.409204
-1.4566995 -0.11005003 -0.41973802 0.9313552 2.6780174 0.096359074 -0.6805552 0.7407264
1.3743061 0.13962527 0.3915666 -0.13426346 0.30816403 0.7325552 -0.65816313 -0.5531625
-0.6344675 0.7315715 1.169295 -0.16389976 -0.40113398 0.38831764 -1.6328945 -0.3974209
0.42444003 0.89109385 0.43220106 0.8109174 -0.67033505 -0.82961035 0.9291732 -1.7413883
0.23313007 0.035325143 -1.0326086 -1.2356064 -0.6615198 -0.48681897 -1.162119 1.0084516
0.2639377 0.14594047 0.65559816 1.0199336 0.60951 0.71288496 -0.13822415 0.45440477
0.18064249 -1.6040984 0.048981804 1.1995504 1.2289969 -1.1766285 1.5417784 0.46484753
-0.5587088 0.35558686 -1.3385468 -0.018348657 -0.33262584 0.53558034 -0.8961595 0.6901778
-1.2108741 -0.6575669 -0.53205246 -0.41895822 -0.60096204 0.50789213 0.24560542 1.0210351
1.0962443 -0.6215975 -0.04144117 0.14012998 1.4157517 1.571236 1.6193839 0.52455795
-0.3339665 -0.0045690895 -0.48179084 0.69231457 0.6955605 0.763063 -0.118164726 1.6592091
0.34342334 -1.0581526 -0.73087794 -1.1449575 0.2418773 0.41460088 -0.7967401 1.2455547
-1.1896743 -0.012183614 -1.2529083 0.13467942 0.30732933 0.8458932 0.057448376 0.040823877
-0.29017234 0.86276925 -0.66527534 -0.61806595 0.68401945 0.062359452 -0.6616571 -0.27273756
0.74230206 -0.39633384 -1.7424306 -0.26882076 -0.033800416 0.5192352 1.24765 0.16997562
0.2113919 0.0074999942 -0.22638956 1.5421968 -1.3686858 -0.29491854 -0.37310484 0.7307929
-0.40485248 -1.1389315 -0.6948394 1.5391625 0.09216528 1.306175 -1.2982619 -0.11621141
1.9920068 -0.03179835 0.9241821 -0.26458323 -1.0240943 0.5508703 -0.5493604 0.88458866
0.16019695 1.0158565 0.08734512 2.0132928 0.2937294 -2.0790825 -0.37512523 -0.3456363
1.0588716 -0.53952706 -0.71538085 -0.3412891 -1.8213105 0.8260758 1.1921684 -1.1419556
-0.7324388 -0.82154965 -2.0292466 -1.1945744 -0.3318848 0.37635627 0.01955317 1.2299271
-0.21729538 -0.068256564 0.7496197 0.46877643 -0.3994912 1.581271 2.0450516 0.58607584
-1.1885638 -0.8571338 -0.30617622 -0.31543353 1.6889372 -0.25427568 0.042509593 0.1105182
1.5703702 0.6892304 1.0644357 1.960809 -1.8709908 -0.23824006 1.3454685 -0.7977106
1.5110964 -0.5930449 -0.3407446 0.974983 -1.7451382 -1.6342293 0.050835464 -0.057508465
1.1664108 -0.3578582 1.1790284 0.48365533 0.53732777 1.6662679 -0.6133773 0.59990674
-0.8214285 1.9890177 0.2469017 1.1321739 0.38304415 0.5419528 0.49069756 -1.2347043
1.3129627 0.0466541 2.5050712 -2.097855 -0.6629101 -0.11808869 -2.7649212 1.6793154
-0.47563216 -1.2429079 0.5410558 -0.7986787 -0.99470973 -1.107148 -0.4285753 1.6826295
-0.013638663 0.90619165 -1.1797189 -0.6809439 -1.3506289 -0.42739442 0.28103763 0.728683
1.6972424 -1.0146371 1.552048 -0.04111223 -2.0435593 0.14227965 -0.18387948 -0.74975306

bias_human.weight f4 [36, 1]
00000000: ed8b a3be bf86 34bf 9628 edbd f86a 4dbd
00000010: 8d2c b2be bd8b b8bd 3ca3 c1be a8be 58be
00000020: 655e 8dbe 3da5 6cbf 69b5 afbe 6cc3 67be
00000030: 0161 4dbe 2b4c 873d 5e25 bfbe b5b3 1dbe
00000040: 429e 06bf 7353 63be ddfe df3c 4283 4ebe
00000050: cf35 9dbe 8cad 1abf 4970 8fbe 4b1f 453e
00000060: 583a febe 2fe3 1e3f 9770 60be 068d 913e
00000070: ebbc 98be a6ac dfbd 4314 94be 7036 12bf
00000080: 1470 9f3d 3bd7 91be a603 be3d c151 07be
-0.31942692 -0.70518106 -0.11580007 -0.05015084 -0.34799615 -0.09011028 -0.3781985 -0.2116648
-0.2761108 -0.92439634 -0.34318092 -0.22633141 -0.20056535 0.06606325 -0.37333196 -0.15400584
-0.5258523 -0.22199802 0.027343208 -0.20167258 -0.30705115 -0.6042106 -0.28015354 0.19250219
-0.49653888 0.62065405 -0.2191795 0.28427905 -0.29831633 -0.10921602 -0.28921708 -0.57114315
0.07785049 -0.2848452 0.0927804 -0.1321478
