pytorchmf/flumodel.pt (torch_old, 247149 bytes, 4 tensors)

virus.weight f4 [203, 20]
000000 9a 37 09 bd 74 96 65 bb 27 ba 14 bb 02 b0 ee 3c
       -0.03350029 -0.0035032304 -0.0022693963 0.029136661
000010 2d 62 a9 bc 1d 49 bc 3c 8c 4c 21 bc 9b d0 a9 bc
       -0.020676697 0.022984082 -0.00984491 -0.020729354
000020 a0 98 2c 3d d1 37 c8 bc 21 26 b7 3c 8f 21 d9 bb
       0.042137742 -0.024440678 0.022357048 -0.006626315
000030 06 2e 06 3d 0d a6 20 3c 2b e6 a2 bc 04 65 d4 3c
       0.032758735 0.009805215 -0.019885143 0.025927074
000040 c6 0f 15 bc ff 40 2b 3c 7b 97 a3 bc 7c 90 3c 3c
       -0.009097999 0.010452508 -0.019969692 0.011509057
000050 c3 59 6a bc 89 72 95 3c ee 5d c5 bc 7a bf 88 3c
       -0.014303627 0.018243091 -0.02409264 0.016692866
000060 c6 c7 4d bc 51 14 bb 3b e7 3d 3b bc 7b 38 c9 3c
       -0.012559837 0.005709209 -0.011428333 0.024563065
000070 34 ff a7 3b 8f 5b c7 bb 7b a2 af 3b f3 9d 09 3d
       0.005126858 -0.0060839127 0.0053599454 0.033597898
000080 f9 5e b6 3c a9 41 11 bc 6b 7f 93 3c 9a 7e 21 3c
       0.022262083 -0.008865752 0.018005094 0.009856844
000090 e3 e6 87 3a 70 f4 e2 bb 2f a8 5b bc dc 57 1a 3d
       0.0010368492 -0.006926112 -0.013406797 0.037681445
0000a0 fb 51 44 bd da 9a 24 bd 74 17 f8 ba 85 3f 1e 3c
       -0.047929745 -0.04018674 -0.0018927888 0.009658699
0000b0 46 c7 f1 3b 89 0c 1e bd cf 12 9e bc 08 fb 02 3d
       0.0073784916 -0.038586173 -0.019296078 0.031977683
0000c0 52 e4 32 bc 0b 6e 32 3b a0 e0 6d 3d ab 60 97 bc
       -0.010918694 0.0027226235 0.058075547 -0.018478712
0000d0 7f 71 e2 3c 85 04 2c bd 7e e4 f0 ba 79 df b4 bc
       0.02764201 -0.041996498 -0.0018378643 -0.022079216
0000e0 b8 f2 36 bc 51 a7 c5 3c d0 96 0e 3a 29 cd 47 3d
       -0.011166267 0.024127634 0.0005439343 0.04877964
0000f0 93 c7 73 3c e8 73 8d bc 50 19 12 3c 14 7b 9d bc
       0.014879125 -0.017267182 0.008917168 -0.019223727
000100 b3 53 c7 3b 78 29 01 bc d6 08 3b bc e3 0f a0 ba
       0.006082976 -0.007883422 -0.011415681 -0.0012211766
000110 44 9a ca bb db 57 94 bb 97 97 af 3c 28 0c 53 3c
       -0.0061829407 -0.0045270748 0.021434588 0.012881316
000120 dd a7 38 3b b2 32 c7 bb df df 76 3c 94 01 e6 bb
       0.0028176226 -0.0060790414 0.015068023 -0.007019231
000130 6f f0 9b 3b 45 a4 9b 3c fc 01 9c ba 14 00 cd 3c
       0.0047588865 0.018999228 -0.0011902447 0.025024451
000140 4b 6a ec 3b 56 21 a8 3b 4e 85 b9 bb 80 dc 7b bc
       0.0072148195 0.005130927 -0.005661643 -0.0153723955
000150 a9 ca 35 bc 26 c8 0a b9 27 79 08 bb 68 4b 71 3c
       -0.011095681 -0.00013235267 -0.0020824166 0.014727451
000160 93 e9 bb bb 11 af fa bb 85 bd 83 3c 73 ca fc 3b
       -0.0057346313 -0.007650264 0.01608158 0.0077145635
000170 0b fc 66 3c 30 62 7e 3b 88 b5 57 3c 44 8b 4e bc
       0.014098178 0.0038815849 0.013165839 -0.012606446
000180 4d 84 21 3c 51 81 b7 bb 88 35 aa bb b9 38 6c 3c
       0.009858203 -0.0056001325 -0.0051943697 0.014417821
000190 61 3b bd 3c 00 b7 ea 3c d3 15 00 bd 42 df 08 bd
       0.023099603 0.028651714 -0.031270813 -0.03341604
0001a0 18 09 7c bc 32 d3 d6 3c f5 04 d6 3c 9e d3 e3 3c
       -0.0153830275 0.026223753 0.02612541 0.027810868
0001b0 32 23 88 3b 8f ba 2f bd de e6 6f 3d 8c bc 83 38
       0.0041545862 -0.042902526 0.05856978 6.2816864e-05
0001c0 41 8f 97 3d 38 10 1d 3b 96 dc a6 bc c0 b2 af 3c
       0.074003704 0.0023965966 -0.020368855 0.02144754
0001d0 3d c5 e8 3c 66 10 7e 3b b2 fa ad bc 13 e7 a5 3d
       0.028414363 0.0038767098 -0.021237705 0.081007145
0001e0 42 4e 54 3b 99 a0 6f bb 17 8a e7 3b 0a 71 18 bc
       0.0032395278 -0.003656423 0.007066022 -0.009304294
0001f0 db ef 9a 3a 3c ae 9a 3b 26 fa 1a 3c 1c cf 13 3b
       0.001182075 0.0047204774 0.009459054 0.0022553867
000200 e8 d5 a5 bb f3 e4 02 bc e8 31 be 3c d0 09 9a bb
       -0.0050609 -0.007989156 0.023217157 -0.004700877
000210 ec df 36 3c 84 5d 7a 3c e9 be 38 bb 77 08 a2 3a
       0.011161786 0.015281085 -0.0028189963 0.0012362142
000220 20 b2 8e 3b 8d bb de b8 81 64 a6 3b 3c b1 72 3c
       0.0043547302 -0.00010620719 0.005077899 0.014812764
000230 5a f8 c4 3a 75 f3 91 bc ea e0 25 bb 48 06 13 3c
       0.0015027628 -0.017816285 -0.0025311061 0.008973666
000240 54 cd 21 bb b1 9a 9f 38 48 53 62 bc 86 d4 1b 3c
       -0.0024689035 7.610524e-05 -0.013813801 0.009511119
000250 08 ec df 3a 09 f4 43 bc 9c fb a4 3c 44 8f 09 3c
       0.0017083893 -0.011960038 0.020139508 0.008395974
000260 c4 82 2e bc fc fe 86 3c c6 60 45 3c 06 7e df bb
       -0.010651294 0.016479008 0.012046998 -0.006820443
000270 47 d9 56 b9 fd 65 4e 3c ec fb 8b 3b 96 bf 11 ba
       -0.00020489572 0.012597558 0.004271975 -0.00055598596
000280 22 9e 1a 3c e7 fa 2e bc 94 d1 e8 ba 1d 27 3d bc
       0.009437116 -0.010679937 -0.0017762654 -0.01154497
000290 37 9a ae bc a7 e4 d7 ba 4f 51 1f bb 3d 21 c1 3b
       -0.02131377 -0.0016471342 -0.0024309938 0.005893855
0002a0 2a b8 63 bc 21 14 b5 bb d7 8a e1 3c 3b 5e 2a 3c
       -0.013898889 -0.005526081 0.027532024 0.010398443
0002b0 f8 31 c0 3c b0 a7 da 39 2c 24 6a 3c 55 99 f5 bb
       0.023461327 0.00041705137 0.014290851 -0.0074950852
0002c0 fe 74 2b 3c 3c 9c 80 bb 87 15 24 3a a9 05 42 3c
       0.010464905 -0.0039248746 0.00062593113 0.01184217
0002d0 44 ca 8b 3b 14 2a 05 b7 80 7d 24 bb 81 0a 31 bb
       0.0042660553 -7.937215e-06 -0.0025099218 -0.0027014317
0002e0 13 1c c4 bb 03 ba 58 3b 75 0f 1e 3c 73 cc 1e ba
       -0.005984792 0.0033069856 0.00964724 -0.0006057687
0002f0 2e 6d b4 3a 17 8c c5 ba dd a5 9f 3c fc 46 25 3c
       0.0013765448 -0.0015071657 0.01948827 0.010087725
000300 61 98 21 3c e1 cc 27 3b 7f 56 1c 3b 95 91 b1 bb
       0.00986299 0.0025604295 0.0023855267 -0.005418966
000310 e5 0a 28 ba bf ee c5 3a 22 5e be 3b a6 d2 eb 39
       -0.0006410315 0.0015101059 0.0058095613 0.00044979638
000320 8b 1d 03 3c 44 77 07 3d 55 73 a1 bc 96 8b 97 ba
       0.008002649 0.033072725 -0.019708315 -0.0011561986
000330 3f 6d 15 bd e4 7a f3 bc 1f 20 18 bd 36 60 d0 3c
       -0.03648114 -0.029721685 -0.037140008 0.025436502
000340 df 91 f3 3c 41 80 60 bd 2a f9 41 3d 38 28 42 b9
       0.029732643 -0.054809812 0.047356762 -0.00018516264
000350 a9 e9 5d 3d 27 84 a0 bc 64 59 3b bb 15 e2 22 3c
       0.054177914 -0.019594265 -0.0028587217 0.0099415975
000360 7c 99 bb ba f1 ee 0b 3c 5a 9c ec bb 08 cf 18 3d
       -0.001431271 0.008540855 -0.007220787 0.037306815
000370 ef c2 a1 3c be 79 33 3c d2 ae 6f bb 70 d9 e5 ba
       0.019746272 0.010954319 -0.0036572707 -0.0017536115
000380 f2 61 ab ba 6d 0d 43 bc 12 1d ad bb b1 77 42 bb
       -0.0013075455 -0.011905056 -0.0052830065 -0.0029673392
000390 46 68 ab ba df 8f 0b bc 26 dd 17 3d f6 a3 a7 bc
       -0.001307734 -0.008518188 0.037076138 -0.020463925
0003a0 3f 78 09 3d 3b ad f0 bb bf 21 72 3c 07 7d ea 3b
       0.03356194 -0.0073448694 0.0147785535 0.0071560177
0003b0 ee 63 ed bb ed 29 49 bb dc 84 40 bc 46 15 11 3d
       -0.0072445786 -0.0030695156 -0.011750426 0.03542068
0003c0 1a 63 af 3c 2b ad 0f bd e2 c1 6e 3c 55 3e 32 3c
       0.02140956 -0.035077255 0.014572592 0.010879119
0003d0 38 f7 72 3c 3a 19 2b bd 28 5b fa bb c2 6e 12 3d
       0.014829449 -0.041772105 -0.007640261 0.035750158
0003e0 bf 2b 40 3c 0a 4b c0 bc 5e 53 b3 3c 0a 9c 2d 3c
       0.01172918 -0.023473281 0.021890339 0.010596285
0003f0 51 b8 8f 3c e3 d5 91 3c d3 15 83 ba a1 11 83 3b
       0.017543944 0.017802184 -0.0010001011 0.0039999043

human.weight f4 [2727, 20]
000000 29 de 6a bf ef c3 05 3e b4 9d 8e bf 2a 42 ca 3f
       -0.9174524 0.13063024 -1.1141877 1.5801442
000010 29 b7 8c be 49 cf 90 bf 22 74 06 40 1d 0d eb 3d
       -0.2748349 -1.1313258 2.1008382 0.114771105
000020 8e 5b 1d 3e 92 d0 4f be ef 9a 94 bf 28 a4 5f be
       0.15366957 -0.20294407 -1.1609782 -0.21839964
000030 f3 4b 95 3f 90 6f f6 3e 51 51 de bf a4 10 fa 3e
       1.1663803 0.4813199 -1.7368566 0.4884082
000040 54 a6 7f 3f a8 46 80 3f da 71 f2 3e 70 4e 3e be
       0.9986317 1.0021563 0.47352487 -0.18584609
000050 f8 ab ca bd c3 1c 9a be 4a 57 3d bf 89 f1 88 3e
       -0.09896082 -0.30100068 -0.7396132 0.26746777
000060 c0 5f 32 bf dd 47 7e be bf 31 4e 3f 78 12 cc 3e
       -0.6967735 -0.24832101 0.80544657 0.3985784
000070 6b 5d b9 3e dc 47 ed bf c6 65 99 3f 37 b7 d4 3e
       0.36204085 -1.8537555 1.1984184 0.41546032
000080 12 12 11 c0 a7 71 3c 3f 2c b5 16 bf 8f b2 41 3f
       -2.266728 0.7361092 -0.58870196 0.75663084
000090 b8 18 b8 3f 2e 20 88 3c 59 eb 2f bf 19 e6 d0 3e
       1.4382544 0.016616907 -0.6871849 0.4080055
0000a0 14 60 2b 3f ef 0f 99 3f a8 fe 9d bf 61 18 4b bd
       0.6694348 1.1957988 -1.234334 -0.049583796
0000b0 ea a7 0f 3e 1e cd 11 bf af 03 81 bf 55 77 ef bf
       0.14028898 -0.5695361 -1.0079249 -1.8708292
0000c0 c2 c2 2b 3f c0 7a 46 be b5 cc 3e bf 1a e0 42 3e
       0.6709405 -0.19382763 -0.7453111 0.190308
0000d0 ba ec 3b 3f 30 00 58 3f d7 ab 4f 3e ad c0 3d bf
       0.7340809 0.84375286 0.20280395 -0.74122125
0000e0 e3 61 81 3e f5 2a 35 3d 53 b9 40 bf 7b 25 3f bf
       0.25269994 0.04423042 -0.7528278 -0.74666566
0000f0 f2 10 19 bf 9f 46 c4 3f ec f3 5d 3f 77 b3 a0 bf
       -0.5979148 1.5334052 0.8670032 -1.2554768
000100 72 da 63 3f 81 12 c4 3e c3 03 4e be 81 e4 80 3f
       0.89005196 0.38295367 -0.20118622 1.0069734
000110 b2 2b 5f bf 91 db a1 3f b3 e2 e3 3e 45 62 4b 3f
       -0.8717605 1.2645131 0.44508895 0.7944682
000120 57 0b 86 3e a1 38 4e bf 38 cf 25 3e 45 1f 63 be
       0.26180527 -0.8055516 0.16192329 -0.22179897
000130 32 23 a4 3f b0 59 94 bf 2f ee 1c 3f da 5c 18 3f
       1.2823241 -1.158987 0.6130094 0.5951668
000140 76 c1 4f 3e 1e 71 05 3f a3 8a 03 40 b6 30 4c 3f
       0.20288643 0.5212573 2.0553367 0.79761827
000150 a8 88 92 3e 57 f9 c8 3f c6 a7 90 bf 98 23 0a be
       0.28619885 1.5701092 -1.13012 -0.1349014
000160 7f 72 55 bb 71 c0 e3 3f 2e 41 9f bd d7 49 6d bf
       -0.0032569466 1.7793103 -0.07776104 -0.92690796
000170 74 06 49 3e 5b b0 c9 3e 3c 0f 75 3f ec 6b 40 bf
       0.19631368 0.3939236 0.9572637 -0.75164676
000180 f8 d5 0a 3f 7f c1 c1 bf 49 8f a2 3f d9 3a 72 be
       0.5423274 -1.5137175 1.2699977 -0.23655261
000190 51 42 da 3f 9c 3b 76 bf 5a bc 1c 3e 01 6c 85 bd
       1.7051488 -0.96184707 0.15306225 -0.06514741
0001a0 6c 11 af 3f 22 b0 1a bf 34 64 1b 40 93 7a 91 3f
       1.3677192 -0.6042501 2.427991 1.1365532
0001b0 09 dd 36 3f 94 cd a7 bf 5d ac 24 bf 1c af 70 be
       0.7143102 -1.3109612 -0.64325505 -0.23504299
0001c0 52 74 5a 3f 6a 69 77 bf 85 c5 06 be a0 05 77 bf
       0.8533374 -0.96645224 -0.13161285 -0.9649296
0001d0 f9 f3 c8 3f 39 07 8b bf 1f f0 4a 3f 4c eb 0b bf
       1.5699455 -1.0861579 0.79272646 -0.5465591
0001e0 52 c9 9c 3e 45 34 0c be 53 ef b2 3e 54 97 bb 3f
       0.30622345 -0.13691814 0.34948215 1.4655557
0001f0 c6 e7 71 3e 32 7c 5a bf 44 09 b9 be f0 86 bc 3d
       0.23623571 -0.85345757 -0.36139882 0.09205425
000200 98 14 90 3e 22 25 86 3f 3c 9e f7 3e 4b 51 99 bf
       0.28140712 1.0480082 0.4836291 -1.1977934
000210 e7 50 8e 3e 20 54 0b be fd 21 c4 3f 32 ed aa bd
       0.277961 -0.1360631 1.5322872 -0.08346023
000220 4d 89 c3 bf d6 3f 2b bf e9 dc 1e 3e e5 38 07 bf
       -1.5276276 -0.6689428 0.15513958 -0.5282119
000230 73 c2 a4 be 77 91 95 bf 29 45 a7 be c6 4a 0e 3f
       -0.32179603 -1.1685017 -0.32669953 0.55582845
000240 bc aa 42 3f 25 6c b8 3f 15 75 39 3e e5 02 af 3f
       0.7604177 1.4408003 0.1811107 1.3672758
000250 3f a5 b9 bd 9d 6c 9c 3f e0 6f b8 3a 38 ce 02 c0
       -0.09064721 1.2220646 0.0014071427 -2.0438366
000260 37 46 95 3f ab 6f 3d 3f 42 39 88 bd a4 1b 6d 3e
       1.1662053 0.73998517 -0.06651546 0.23155075
000270 d3 51 57 3f 00 ac 05 bf 54 4f 54 bf a3 7e 44 bd
       0.8410923 -0.52215576 -0.82933545 -0.047972333
000280 97 b3 80 be 79 fe 4d bf 9f 7d 4e 3f d8 ba 96 bf
       -0.25137016 -0.8046642 0.8066043 -1.177577
000290 a0 67 51 be 9c 14 9c bf 35 3e 8c bf 59 80 0f 3f
       -0.20449686 -1.219379 -1.0956484 0.5605522
0002a0 50 b6 75 bf 40 6a fa be 38 cf 88 3f 61 6c b4 3f
       -0.9598131 -0.48909187 1.0688238 1.4095575
0002b0 c0 dc a7 3e dd 4c 78 3f 17 fe 90 3f bf 9b 94 be
       0.32785606 0.96992284 1.1327542 -0.29025075
0002c0 e5 5b 93 bd 87 99 a4 bd b6 1a 58 bf 50 53 1a 3f
       -0.07195262 -0.080370955 -0.8441576 0.60283375
0002d0 5b 94 b6 3f a8 25 f1 be 03 16 af bf c0 5d 4f bf
       1.4264024 -0.47099042 -1.3678592 -0.81002426
0002e0 62 9b 68 3f c1 e8 0c bd ed 45 ec 3c 06 ac a2 be
       0.90862095 -0.03440166 0.028841937 -0.31771868
0002f0 11 bd 39 3f 59 77 d2 3d ee 45 96 bf 0e b9 22 bd
       0.7255412 0.1027667 -1.1740091 -0.039727263
000300 c1 04 f6 3e 4b ec 04 3f 64 40 a5 bf 3d 4a f0 3e
       0.48050502 0.51923054 -1.2910275 0.4693164
000310 e8 0f 9d be 90 71 1c 3e 17 1d 84 3f 2c e5 04 3e
       -0.30676198 0.15277696 1.0321378 0.12978047
000320 f9 ea 3a 3f 49 ab e1 bd 47 a9 6d 3e 53 c9 81 3f
       0.7301479 -0.11018998 0.23209105 1.0139564
000330 b8 f3 cf be 0b 7a 13 3d e6 79 ad 3d 09 c1 13 3f
       -0.4061563 0.03600506 0.08470516 0.57716423
000340 fd 80 03 3f d7 53 07 bd 42 4d 37 be b9 9a 8d 3f
       0.51368695 -0.03303894 -0.17900565 1.1062843
000350 d3 da fc 3e 5b cd ba 3e 4d 66 c5 3e 61 c3 f0 3e
       0.493857 0.364848 0.38554612 0.47024062
000360 8a 98 ba 3e f0 c7 87 bf 24 bc b4 be 5f d7 2f 3f
       0.36444503 -1.0607891 -0.3529979 0.68688005
000370 00 26 bc bd 46 d2 12 bf 44 92 59 3f 77 3d d5 3e
       -0.091869354 -0.573521 0.8498881 0.41648456
000380 90 02 d4 bf 4c b4 ec be 75 01 82 be c4 bf a7 3c
       -1.6563282 -0.46231306 -0.25391737 0.020477183
000390 3e 4a f6 bf 9d fd 88 be 70 38 2f bf 8b 71 8f bf
       -1.9241407 -0.26755992 -0.6844549 -1.1206526
0003a0 cf b9 ab 3f 06 57 95 bf 05 5d 23 be 6a f4 96 3d
       1.3416079 -1.1667182 -0.15953453 0.07370837
0003b0 c1 4d 27 bd aa c1 69 bf e8 bd 3c 3f 6a 4b ba be
       -0.040845636 -0.9131113 0.73727274 -0.3638566
0003c0 95 81 b5 3e fd 19 08 40 76 48 95 3e f1 91 a2 3d
       0.35450426 2.1265862 0.29156846 0.07937992
0003d0 55 66 88 bd 36 db 90 3f 72 58 ed be 77 c1 04 bf
       -0.06660143 1.1316898 -0.4635654 -0.51857704
0003e0 82 83 76 3e 8d 31 19 3e a7 31 14 3f cb dc 46 3f
       0.24073604 0.14960308 0.57888263 0.77680653
0003f0 6b f0 22 3f 38 98 9c 3e 80 a2 b0 3d 33 47 a2 3f
       0.636481 0.30584884 0.086247444 1.2677978

bias_virus.weight f4 [203, 1]
000000 aa c1 6c 3c 0f bf a2 3c 51 e2 a5 3d 1f b9 25 bd
       0.01445047 0.019866494 0.08099807 -0.04045975
000010 1e 1e 38 bd 1d 1a b9 3d 33 23 62 bd 2b a0 4e bd
       -0.044950597 0.09038184 -0.05520935 -0.050445717
000020 51 93 26 bd 2d a0 4c bd 48 33 4f 3a da 59 ee bc
       -0.040667836 -0.049957443 0.0007904065 -0.029095579
000030 60 b2 82 3d cf a2 73 3d 5a 4e 43 3d bb 18 c2 3c
       0.063816786 0.05948144 0.047682144 0.023693433
000040 22 00 0b 3d 57 29 3e bd bb ed ae bc bb d4 f9 bc
       0.033935674 -0.046426143 -0.021353593 -0.030496946
000050 a6 6a 0d bd 61 35 39 bd b7 e4 3d bd b8 0c 4e bd
       -0.034525536 -0.04521692 -0.046360698 -0.0503051
000060 e5 60 ca 3d c2 4c 09 3e 63 09 21 bd db 97 4e bd
       0.098817624 0.13408187 -0.039315592 -0.05043779
000070 71 78 39 bd 63 bd 4c bd 83 f2 34 bd ff 2b e8 bc
       -0.045280878 -0.0499853 -0.04417659 -0.028341291
000080 90 79 fd bc 84 8d e0 bc 52 7c 4b bd 08 d0 41 bd
       -0.030941755 -0.02741123 -0.049679108 -0.047317535
000090 07 39 20 bd 5e b8 24 bd 7c d7 10 bc 86 74 39 bd
       -0.039116886 -0.04021489 -0.008840438 -0.04527714
0000a0 d6 11 c5 bc 74 8d 43 bd cd ce cd bc 45 fa 5c bd
       -0.024056356 -0.047742322 -0.025123024 -0.053949613
0000b0 b8 5d 33 bd 2f 63 47 bd 40 7c 3a bd e4 28 42 bd
       -0.04379055 -0.048678573 -0.04552865 -0.047402278
0000c0 e3 04 39 bd 8b a2 71 bd d3 e7 4e bd d5 60 58 bd
       -0.045170676 -0.058992904 -0.050514054 -0.05282672
0000d0 26 16 55 bc c7 61 79 3d 21 ef 63 3e 65 17 67 3e
       -0.013005769 0.060884263 0.22259189 0.22567518
0000e0 2a fb 2b 3e e4 46 dd 3b 94 54 bb 3d d9 2a 2d 3e
       0.1679503 0.0067528356 0.09146991 0.16910876
0000f0 25 4f 66 3d 45 f0 a6 bc bf e5 41 bd fd 6e 27 bd
       0.05622782 -0.020378241 -0.047338244 -0.04087733
000100 36 ba 2e bd de a9 15 bd 41 36 8d bc 3f 3e ed bc
       -0.042658053 -0.03653895 -0.017237784 -0.028960345
000110 ba 3f 0e bd 85 63 d4 bc 21 78 07 bd fc 23 de bc
       -0.034728743 -0.02592636 -0.03307355 -0.027116768
000120 b7 b1 43 bd e4 0a 16 bd c1 7a 9e bc b6 b4 91 3c
       -0.047776904 -0.03663148 -0.019345643 0.017786365
000130 9c 50 2b bd 8b 9a a0 bc ad 03 2e bd e2 23 32 bd
       -0.041824922 -0.019604942 -0.042483974 -0.04349125
000140 e5 0a f2 bc 41 ec 27 bd 5b 7f 2d bd bb e4 21 bd
       -0.02954621 -0.040996794 -0.042357784 -0.039524775
000150 0d 66 54 bd 54 06 37 bd ed 2c 6c bd 26 78 32 bd
       -0.051855136 -0.04468377 -0.057660032 -0.043571614
000160 0e 7b 4a bd 96 b6 2c bd ca bd 32 bd b0 ac 57 bd
       -0.04943376 -0.042166315 -0.04363803 -0.052654922
000170 0b 6d 2a bd 2b a7 04 bd 0a 19 39 bd 08 f1 2d bd
       -0.041607898 -0.032385986 -0.045189895 -0.042466193
000180 bd 34 6a 3d 6a 94 27 bd 27 78 38 bd e5 29 0a bd
       0.0571792 -0.040913023 -0.04503646 -0.03373136
000190 0b 36 42 3d ce ed 22 bd 4b a2 45 bd d6 ae 41 bd
       0.04741482 -0.03977757 -0.048250478 -0.047285877
0001a0 55 e4 58 bd 99 e8 55 bd e8 47 3a bd 0d 8a 3c bd
       -0.05295213 -0.052223776 -0.04547873 -0.046030093
0001b0 73 e6 23 bd 7c c5 4e bd 1c 39 43 bd 4f 99 42 bd
       -0.040014695 -0.050481305 -0.047661886 -0.047509488
0001c0 15 44 47 bd c5 a2 3c bd 7f 07 34 bd 29 af 56 bd
       -0.048648912 -0.046053667 -0.04395246 -0.05241314
0001d0 c1 b9 33 bd 5a b5 39 bd fb d0 28 bd d9 0f 34 bd
       -0.04387832 -0.045338966 -0.041214924 -0.043960426
0001e0 ed 2c 56 bd 2e a0 0a bd d3 9a 50 bd c8 6e 4a bd
       -0.05228894 -0.033844166 -0.050928902 -0.049422055
0001f0 14 97 39 bd 96 12 47 bd 8b d9 2a bd 17 78 54 bd
       -0.045310095 -0.04860171 -0.04171137 -0.05187234
000200 ad 7b 58 bd 31 f2 54 bd 66 be 4c bd 69 ae 36 bd
       -0.05285232 -0.051988784 -0.049986266 -0.044599924
000210 b1 48 4f bd 1e 3f 54 bd 00 1a 3b bd 40 f9 32 bd
       -0.050606433 -0.051818006 -0.045679092 -0.043694735
000220 c3 c9 53 bd 87 c7 4d bd d1 f3 16 bd 05 c1 45 bd
       -0.051706087 -0.050239112 -0.036853615 -0.04827978
000230 b2 97 5f bd e6 45 2e bd 16 18 27 bd 6d 31 42 bd
       -0.054588027 -0.04254713 -0.040794455 -0.047410417
000240 fa 7b 44 bd a4 72 24 bd 9b 8f 30 bd 7a a9 41 bd
       -0.047969796 -0.040148392 -0.043105703 -0.047280766
000250 4c d0 63 bd 21 dd 3a bd a5 5e 15 bd 3f 40 44 bd
       -0.05561857 -0.04562104 -0.036467213 -0.047912832
000260 1d d3 44 bd 1c e5 36 bd 34 91 45 bd 2d ea 55 bd
       -0.048052896 -0.04465209 -0.04823418 -0.05222528
000270 01 c4 4b bd 7e 1d 59 bd d5 c7 6a bd 69 80 58 bd
       -0.04974747 -0.05300664 -0.05731948 -0.052856836
000280 ed 95 20 bd 81 d5 25 bd 71 b8 52 bd 5d 11 3e bd
       -0.03920548 -0.040486816 -0.05144543 -0.046403278
000290 81 44 4e bd 58 46 3a bd a4 77 58 bd d3 98 3e bd
       -0.0503583 -0.04547724 -0.052848473 -0.046532463
0002a0 49 89 63 bd 79 a2 40 bd 0b 28 1b bd 30 0e 58 bd
       -0.055550847 -0.047029946 -0.037879985 -0.052747905
0002b0 47 f9 3d bd d2 f2 4e bd 24 6f 42 bd ef 03 41 bd
       -0.046380308 -0.05052454 -0.047469273 -0.047122892
0002c0 10 04 4f bd 64 79 41 bd 7f ca 69 3c 66 64 0e bd
       -0.050540984 -0.047234908 0.01426947 -0.034763716
0002d0 ed bf 1c bd bd bd 47 bc 65 0a f6 bb 2d 42 3b bd
       -0.038268972 -0.012191233 -0.0075085633 -0.045717407
0002e0 25 09 3e bd 3e c8 b7 bb 02 e1 5b bd b8 a2 5e bd
       -0.04639544 -0.0056085875 -0.05368138 -0.0543544
0002f0 21 2a 29 bd 71 32 4e bd a8 a6 56 bd ee 56 3c bd
       -0.041299943 -0.050341073 -0.05240503 -0.04598134
000300 a9 2a 3a bd 52 0d 27 bd 97 9e d2 bc a2 28 44 bd
       -0.04545084 -0.040784188 -0.025710387 -0.047890313
000310 25 c3 49 bd d4 81 34 bd 00 af 3f bd 8c 97 43 bd
       -0.04925837 -0.044069126 -0.046797752 -0.04775195
000320 ac 56 30 bd f0 75 47 bd 19 18 3e bd
       -0.043051407 -0.04869646 -0.0464097

bias_human.weight f4 [2727, 1]
000000 6d d1 c7 3c 85 0e 12 bd 80 87 d4 3c 26 a9 98 3c
       0.024391854 -0.03565838 0.025943518 0.018635344
000010 fa 1a 0c 3c 45 66 7f 3a c7 1b 81 ba 92 79 0c 3d
       0.008551354 0.00097427174 -0.0009850197 0.034295626
000020 4d c4 5b bd c8 17 9b 3c e0 b3 2d 3b 82 57 ba 3c
       -0.053654004 0.018932238 0.002650492 0.022746805
000030 e6 9d 0c bd 94 14 1f bd db 3b 1c bc 04 df 2e ba
       -0.03433027 -0.038837984 -0.009535755 -0.0006670805
000040 6f ea 11 3c 28 e3 a4 3c 27 8e a4 3c 26 1b 23 3c
       0.008905991 0.020127848 0.020087315 0.009955203
000050 44 5f fc bc 8b 50 32 3c 63 45 9e 3c 2f 20 ff 3c
       -0.030807145 0.010883461 0.019320196 0.031143276
000060 9c 38 00 bd 9f 9c a0 bc a5 1f 57 bd 6d 68 36 3c
       -0.031303987 -0.019605933 -0.052520413 0.0111332955
000070 d1 66 92 3c e1 01 57 bc 83 47 e6 bc 0f 3a d8 3c
       0.017871292 -0.013123007 -0.028110271 0.026394872
000080 e9 c7 82 3d ff b2 f8 bc 56 7e 2d bd 79 3f 04 3e
       0.06385786 -0.03035879 -0.04235681 0.12914838
000090 05 a7 fd 3d f1 05 95 bb a0 92 61 bc f7 58 86 bc
       0.12385372 -0.0045478274 -0.013767868 -0.016399844
0000a0 5b 4d 80 3c 29 05 f8 bc cb b4 0e 3d 9d cd a9 3c
       0.015661886 -0.030275898 0.034840386 0.020727927
0000b0 85 e4 8a 3c b9 a5 c1 3c d9 7e f0 bb 35 42 22 bc
       0.01695467 0.023638593 -0.00733934 -0.00990348
0000c0 be da 13 3d 6f 58 7c bc 24 69 76 3c e0 02 84 3c
       0.03609728 -0.015401944 0.015039716 0.016114652
0000d0 a3 e5 44 3c 9a 17 be bc 1a 72 9e 3c 8b 8d e4 3c
       0.01201764 -0.023204613 0.019341517 0.027899524
0000e0 11 65 ca 3c 99 63 87 3c ab b8 36 3d 71 e6 f2 3c
       0.024706395 0.016526984 0.044609707 0.029650899
0000f0 57 14 b6 bb bd 2d 8a 3c df ad 53 bd 95 c8 af 3a
       -0.005556624 0.016867513 -0.05167949 0.0013411219
000100 37 44 1d 3d be a5 1e bc 08 4c e8 3a 46 d9 28 3d
       0.038395133 -0.009683071 0.0017722854 0.041222833
000110 4e cc d2 3c 52 d0 f8 3c 50 14 89 bc 0e 23 be bb
       0.025732186 0.030372772 -0.016733319 -0.0058025187
000120 2f 01 9b bb 67 76 f8 3b 33 de 3f bd ee 33 85 3c
       -0.0047303657 0.007582474 -0.046842765 0.016260114
000130 80 42 a2 bc 1a 63 e5 3c 02 19 7a 3a 89 48 89 3c
       -0.0198071 0.028001357 0.00095404696 0.01675822
000140 60 3b 76 3c 83 cb b3 bc 68 ec eb 3c 34 3d 2b 3b
       0.015028805 -0.021947628 0.02879925 0.002612901
000150 af 9a 26 3d e8 1a a5 3b 14 30 c5 3b e4 16 58 3b
       0.04067486 0.005038608 0.0060176942 0.0032972628
000160 d1 9a 35 bd 1b 63 3a bd 42 27 a3 bc 80 53 04 3c
       -0.044337098 -0.04550467 -0.01991618 0.008076549
000170 3b 32 97 bc 53 57 9b bc 7a 64 d7 3c 66 32 de 3c
       -0.018456569 -0.018962538 0.026293028 0.027123641
000180 9f 25 9d 3c e3 fe ed bc 02 b9 a5 3b 8c 2f 24 bc
       0.019182978 -0.029052204 0.005057455 -0.010021102
000190 1a 22 20 3c e1 38 c8 bc cd c5 3b bd 6e bd e4 bc
       0.009773755 -0.024441184 -0.045842934 -0.027922358
0001a0 b8 ab 15 3c d2 a7 df 3b f2 64 0f 3d cb 4f 81 bd
       0.009135179 0.0068254257 0.03500838 -0.063140474
0001b0 53 3c 0f 3d e0 36 dd 3c 26 e2 04 3d a6 3d d8 bb
       0.03496964 0.027003706 0.032442234 -0.006599146
0001c0 13 c8 63 bd 53 11 c7 3c 05 a8 46 bc 2b 17 c8 bc
       -0.055610728 0.024300253 -0.01212502 -0.02442511
0001d0 57 d2 10 bd d4 d4 5e 3c 10 e9 fd bc 34 e9 00 bd
       -0.035356846 0.013600547 -0.030994922 -0.0314724
0001e0 d4 e6 a6 3c 9f cc 21 bc 7c ea 93 3d 0e d0 7b bc
       0.02037374 -0.009875446 0.07222459 -0.015369428
0001f0 d5 22 a2 3b 60 5f 39 bd ee 11 9b bc 22 a8 d5 bc
       0.004948 -0.045256972 -0.018929448 -0.026081149
000200 45 98 b0 bc ac 98 97 bc 17 7c a9 3c b0 c4 5b 3c
       -0.021556983 -0.018505417 0.020689053 0.013413593
000210 7f ba 7f bc d2 38 2c bc 21 1d e6 3c bc 78 62 bc
       -0.015608429 -0.010511594 0.028090062 -0.013822731
000220 aa 45 ce 3c 9a 39 5a bc dd 12 db bc b6 69 06 3d
       0.025179703 -0.013319397 -0.026742393 0.032815658
000230 3e 61 9f bc ac 7b 2b 3d 5c a1 b5 3a 9c b5 88 3c
       -0.019455548 0.04186599 0.0013857293 0.01668816
000240 50 1e 5e bc eb 20 ea 3b 1c ad 41 3b e7 a2 12 bc
       -0.013557032 0.0071450374 0.0029552644 -0.008949972
000250 c3 62 4b 3d 5f 61 ef 3c 1d 42 1c bd 8d 67 06 bd
       0.049654733 0.029221235 -0.038148988 -0.032813597
000260 ac 5e 9f 3c 8f 3f b0 3c a6 d6 b8 3d 59 c3 3d bb
       0.019454323 0.021514682 0.09025316 -0.0028955548
000270 6b 07 21 bc d8 16 5e 3c 10 90 89 3c 1d 48 7f 3c
       -0.009828429 0.013555251 0.016792327 0.015581158
000280 54 7d 48 bc bc 2b 83 3c c5 61 4e bc c9 d3 af bc
       -0.012236912 0.016012065 -0.012596552 -0.021463292
000290 08 08 e2 bc 43 4e b2 bc fc 51 a6 bc 0e de de bc
       -0.02759172 -0.021765834 -0.020302765 -0.027205493
0002a0 38 ce 54 bc 32 49 fb 3c 09 a7 2e 3d 85 52 5f bb
       -0.0129886195 0.03067455 0.042639766 -0.0034076285
0002b0 5a 75 9e bc 1c 32 51 bd 93 b0 b2 bc 64 a2 80 3d
       -0.019343067 -0.05107318 -0.021812713 0.062809736
0002c0 8a c7 5f 3b 72 20 38 3d 25 06 e3 bc 26 f5 98 bc
       0.0034146034 0.044952817 -0.02771289 -0.018671583
0002d0 53 58 57 bd 70 58 45 3b 62 eb 32 3d 6e e1 49 bc
       -0.052574467 0.0030112527 0.04368151 -0.012321813
0002e0 c5 d6 5b bb 75 a7 e5 3b 8f 27 16 3d 7d 3b 88 bc
       -0.003354476 0.007008488 0.03665882 -0.016629929
0002f0 08 b3 7b 3c 83 c9 4a 3c 31 92 ba 3b 0f 50 f1 3c
       0.015362509 0.012377146 0.005693697 0.02945712
000300 da e2 3f bb 84 75 8b 3c 70 6a 83 3d d9 29 84 3c
       -0.0029279501 0.01702381 0.06416786 0.016133236
000310 c8 75 60 bc 7f f3 d0 bc a9 8f 50 3d 15 ec 2e bc
       -0.013699956 -0.025506733 0.050918255 -0.0106764035
000320 2d e6 26 bb f3 6a f7 bb 62 9d c5 3c 28 1f 07 b9
       -0.0025466785 -0.007550591 0.024122898 -0.0001288621
000330 7b 38 87 3c b0 57 e0 3c da 5e 09 3d 1a 34 a7 bc
       0.016506424 0.027385563 0.033537723 -0.020410586
000340 0c 85 b6 3b 90 cf 83 ba a9 79 18 bb 01 f3 f3 bc
       0.0055700596 -0.0010056365 -0.0023265874 -0.02977896
000350 4c 48 0c 3c 35 38 3a bd f3 c7 32 3d e9 f8 a5 bc
       0.008562159 -0.04546376 0.043647718 -0.020260291
000360 32 a4 28 bc 13 b3 f3 bc e7 d1 01 3d 05 6e 05 bd
       -0.010293053 -0.029748475 0.03169432 -0.032575626
000370 71 94 e9 bc 91 8a 01 bd f4 87 a6 3c a8 b8 a8 bb
       -0.028513165 -0.031626288 0.0203285 -0.005148966
000380 b4 ff 2a bc a6 37 77 3c f8 38 65 bc ee da 3a 3c
       -0.010436941 0.015088951 -0.013990633 0.011404736
000390 8a 50 fb 3c f5 83 83 bc a8 f8 97 bc 75 7e 2a bd
       0.030678052 -0.016054133 -0.018551186 -0.041624505
0003a0 10 8d 3f bc 4a 80 0b 3d 10 36 fa bb 50 ea 51 bc
       -0.011691347 0.034057893 -0.0076358393 -0.012812212
0003b0 e6 1d 5d 3c 34 35 0a bd 04 e6 77 3c a3 93 9e 3c
       0.013495898 -0.033742145 0.015130524 0.019357508
0003c0 ad a8 cf 3c 2e 2d ba bc b1 28 ff bb 1e 02 28 bc
       0.025348986 -0.022726621 -0.007786833 -0.010254411
0003d0 3f ee d3 3c f1 01 ef bb 01 7b 8b 3c 95 c9 37 bd
       0.02587044 -0.0072939326 0.017026426 -0.044869978
0003e0 a3 09 63 bc 21 3d 0a bd 9e 4d 09 bd bb 46 52 3c
       -0.013857278 -0.033749703 -0.033521287 0.012834246
0003f0 d1 7d bd 3c 78 b7 c7 3b 23 84 0c 3c 90 7f 63 3c
       0.023131283 0.006094869 0.008576426 0.013885394
