pytorchmf/hepcmodel.pt (torch_old, 99813 bytes, 4 tensors)

virus.weight f4 [174, 20]
00000000: 8263 b53e 1172 f5be 317d 79bf 3720 44be
00000010: 3fa9 7cbf 5228 b03e d80c 8c3f 1b32 863f
00000020: 9e4a efbe b4a9 da3e 2e4f a53e be0f 4abd
00000030: d8c6 803f ad2a 253f 2123 2ebf 38b5 61bf
00000040: 5dec b03e 011b d4bd 132b 643f 8a3c 15bf
00000050: 9273 b73f 4497 1cbf e7db d63e bf03 423f
00000060: 51a0 e2be 34f5 24bf f6bc 993f edee 5bbf
00000070: 63d5 debe e468 a83f b059 1dbf 8f7a 5bbe
00000080: f324 1b3f e7fe 403f 542a 45be ae5c 883e
00000090: 61fb 76be 9323 10be 866e 03bf 6c7d 12bf
000000a0: 758e 413e 4686 edbe d6da abbf 2a0e 8ebf
000000b0: 6dbb ab3f 9f3b 2dbd 1119 c8bf 7e2f b23e
000000c0: 2832 173f c012 503e 9736 c53e 1f98 483f
000000d0: d292 a13e 4d3f 423e 4e2c 593f 0a7c b9be
000000e0: c1da 2c3e 2c74 f63e 3906 ebbf 198a 973f
000000f0: 6f62 1d3e 6f86 d13f 472e 123f ba0c a8bf
00000100: ef17 afbf d051 763b c286 113f b518 2c3c
00000110: baf5 033f 7522 cb3f 883a f7be a853 96be
00000120: 1428 3c3f b861 d63e 958b 8dbf 8074 aabf
00000130: 53de 05be 3b05 1a40 7a2f b33f 0767 31bf
00000140: 0cfd a23f 228d 5b3f a7a6 923e 5491 03bf
00000150: 5285 403f fbfe 943f 77ec 8b3e c220 0040
00000160: e42b 4dbe 1c9e 52bf 15f1 aa3c a45a 08bf
00000170: 8b81 e7bd 7948 d13c 466c febe c8c1 f23e
00000180: 6e59 d3be dffe b1bd 8366 1b3e 02b5 b33e
00000190: 60a2 65bd f150 da3d 8e9f 28bf 1971 673e
000001a0: b36b 7ebe f8a4 68be d6dd 153e d7af 983e
000001b0: 5aa5 c2be 7e5e 193f 6694 19be c42c 32be
000001c0: ac5c a53e fc2a f43e 3c0f 3fbf 4463 eabd
000001d0: b6e8 d33e 3dd6 7abf 0191 ad3d d270 debd
000001e0: b639 de3e b0cb 143e afc0 83bf 8f6c a83f
000001f0: 43e0 48bf 244e 303f c7bb a8bf 8b88 693c
00000200: 0b89 9ebe c156 cf3e 50a7 9ebe e640 e23e
00000210: bfeb cabe a917 82be f4aa cbbe a9dc 46bf
00000220: c70a 153f a48e 9dbe bda3 db3d 2f40 203d
00000230: e9e6 4dbe a7c0 343f c83f cdbd 6cdb d1be
00000240: 63ab 983e 89eb 17be 2a18 3bbf 98f8 b9bf
00000250: 4946 1f3e 7099 2cbf 6e31 383f 07cc a13f
00000260: 9889 c5be d9bd 1f40 de3f 28bd 54ff 9c3f
00000270: ad69 a33e 74d4 9f3f ed34 06bf 4c84 9a3f
00000280: 37ad 943f a3a3 4d3e 8682 073f d3f5 d0be
00000290: 1140 23bf 0fab d8be 8a49 183f 744c 04bf
000002a0: 2a41 0dbf 30c3 2dbd 8e67 823f c7d4 293f
000002b0: d446 4abe 8070 b3bf 8fde 97be 7b47 c0be
000002c0: 7487 a0be 7286 6b3f 364c 023e a449 11be
000002d0: 3fcd c9bf 1d05 85be ff48 4d3f 414a 5cbe
000002e0: da43 febe 4b12 67bf 293c 263e 7eba 843e
000002f0: c6bf 3abd 4bb4 54be f6d5 b4bf ad00 333e
00000300: fb35 93bf ca47 043f 7318 263d 17ad 15bf
00000310: e34c 1d3f 5ea1 753f 9ad6 6cbc 2af4 043e
00000320: ad39 4f3d 8b04 8fbe b2b5 41bd 8a65 0cbf
00000330: c400 7c3d f3cb 033f b5fd b3be c9c0 acbe
00000340: a708 38bf 15f5 3e3f 8523 83be 5ef4 bd3d
00000350: c4d5 2ebe 7e6d 593e 46a7 4d3f 9f73 f63e
00000360: ab7e 643f 4ab7 33bf b6c2 d13d eca7 15bf
00000370: 4552 273f 1b9d d5be a02d c43e 09f3 243e
00000380: e0e8 5fbf 056d 353f b9c5 953e 3a8a f63e
00000390: 1674 df3e 01ea b6be 7c25 d33e a297 ffbf
000003a0: a4f4 0bbe 3eab 3b3f 3990 18ba 380f 01be
000003b0: 19b7 1ebd 38e9 0dbe 3396 c3bf 59bf bc3f
000003c0: 2d07 893b 2283 39bf 830a da3f 44a1 103f
000003d0: f768 85be ce24 123f 7eee f1be f295 743e
000003e0: 5b82 343e fc3d c0be 7c76 f4bd 2fe7 79bf
000003f0: 2b6a 3a3f cdd7 3e3e ee03 c73e 1c58 c5bf
0.3542748 -0.47938588 -0.9745665 -0.19152914 -0.9869575 0.34405762 1.094142 1.0484041
-0.46736616 0.42707598 0.32286972 -0.04933142 1.0060682 0.64518243 -0.6802235 -0.8816714
0.3455533 -0.10356713 0.89128226 -0.582955 1.4332144 -0.61168313 0.41964647 0.75786966
-0.44262937 -0.6443665 1.2010791 -0.85911447 -0.43522176 1.315701 -0.6146498 -0.21433471
0.60603255 0.7538895 -0.19254428 0.2663321 -0.24119331 -0.1407607 -0.5134052 -0.5722263
0.18902 -0.46391505 -1.3426158 -1.1098073 1.3416573 -0.042293187 -1.563265 0.3480186
0.5906091 0.20319653 0.3851821 0.7835712 0.31557328 0.1896946 0.8483323 -0.36227447
0.16880323 0.48135507 -1.8361274 1.1839019 0.1536958 1.6369151 0.57101864 -1.3128884
-1.3679179 0.0037585385 0.5684625 0.0105039375 0.51546824 1.586989 -0.48286843 -0.293607
0.73498654 0.41871428 -1.1058222 -1.3316803 -0.13073091 2.4065692 1.3998864 -0.6929783
1.2733474 0.85762227 0.2864277 -0.5139363 0.7520343 1.1640314 0.27328846 2.0019994
-0.20036274 -0.82272506 0.02086691 -0.53263307 -0.11304005 0.025547253 -0.4969198 0.47413468
-0.41279167 -0.08691191 0.15175824 0.35099036 -0.056063056 0.106599696 -0.6586846 0.22601737
-0.24845771 -0.2271918 0.14635405 0.29821655 -0.38016778 0.5990981 -0.14998016 -0.17399889
0.32297266 0.47689044 -0.7463262 -0.11444715 0.41388482 -0.9798315 0.08474923 -0.108613625
0.43403405 0.14530826 -1.0293177 1.315813 -0.78467196 0.68869233 -1.3182305 0.014253746
-0.3096393 0.40495875 -0.30987024 0.4419014 -0.39632985 -0.25408676 -0.39778864 -0.7768045
0.5821957 -0.3077289 0.1072459 0.03912371 -0.20107616 0.70606464 -0.10021931 -0.40987718
0.29818258 -0.14835943 -0.73083746 -1.452899 0.15554155 -0.6742163 0.71950424 1.2640389
-0.38581538 2.4959624 -0.041076533 1.226542 0.31916562 1.248671 -0.5242451 1.2071624
1.1615361 0.20081954 0.5293354 -0.4081255 -0.6376963 -0.42318007 0.5948721 -0.5167916
-0.5517756 -0.042422473 1.0187852 0.663403 -0.19753581 -1.4018707 -0.29661986 -0.37554535
-0.31353343 0.9200202 0.12724385 -0.14188248 -1.5765761 -0.25980464 0.8018951 -0.215127
-0.49661142 -0.9026229 0.16233887 0.25923532 -0.045593046 -0.20771901 -1.4127796 0.17480727
-1.1500849 0.5167204 0.04055066 -0.5846724 0.61445445 0.9594935 -0.014455462 0.12983766
0.050592113 -0.27933154 -0.04729242 -0.54842436 0.061524168 0.51483077 -0.351545 -0.33740833
-0.718882 0.74592716 -0.25613037 0.09275125 -0.17073733 0.21233174 0.80333364 0.48135087
0.8925578 -0.7020155 0.10242216 -0.58459353 0.6535991 -0.41721424 0.3831606 0.16108336
-0.87464714 0.70869476 0.29252413 0.48152333 0.43643254 -0.35725406 0.41239536 -1.996815
-0.13667542 0.7330817 -0.00058198307 -0.12603462 -0.038748834 -0.13858497 -1.5280212 1.4745895
0.0041817636 -0.7246572 1.7034458 0.5649607 -0.26056644 0.5708741 -0.47252268 0.23885325
0.17627852 -0.3754729 -0.119366616 -0.97618383 0.7281825 0.18637009 0.38870186 -1.5417514

human.weight f4 [1002, 20]
00000000: f582 95bf 31e0 953f f147 88bf 28c1 79bd
00000010: 3ada 8cbf a543 4fbd b184 8ebf 2041 49be
00000020: 09d3 57bf 0f02 cabf b7bd 26bf 8b5e 183f
00000030: 3368 8cbe 7b81 b5bc 8237 fdbe dcc3 133e
00000040: 6f7f bc3e c0e8 87be 44c5 90be 0d9e bf3e
00000050: 0439 09bf 0afe 51bf 943d 3ebf af0f e53e
00000060: ce51 98be 7f9c b73f 87ba b8bf 91e9 8a3d
00000070: 6882 893f fd2b 5cbf 70a5 28bd b892 88be
00000080: 5b7c 473e 67dc 923c 770e 06bf aaaa 7d3f
00000090: d317 de3e 7516 d83e 550c aebf a1aa 20bf
000000a0: eae6 2040 7575 153f d258 243e 6bcd 0440
000000b0: 6985 903e 6957 fd3e a849 d63d 851f 753e
000000c0: 104c 053f 1870 0fbf 1462 ae3e 2177 953d
000000d0: d8d1 2f3f 87d0 16bf 4b65 0d3f 5e5c 2fbe
000000e0: b032 b63f 9c8b 853d b3b5 b83e d4cd 203f
000000f0: 9274 363e c68c 2fbe 4251 d2bf b0d4 f1be
00000100: c5b8 06bf 4d83 223c 1e74 09bf 675f 84bf
00000110: cde2 eabe ee31 3540 08ad f8be 93a4 8b3f
00000120: 4352 a9be af04 0ebf 05ed bcbe ebb6 09bf
00000130: ec9c 793f f7f1 123e f527 9bbe c32a 78be
00000140: 96f9 3abf 3952 20bf 061f 19bf 41b3 80bc
00000150: e190 40bf 04b9 633f 06f5 933d 4602 54bf
00000160: 87d4 c63e 9284 b9be ca7f d6bd f23c a43f
00000170: b4ae 243f ae9b a63f 9651 083b 64bf 173e
00000180: 176b fcbf 3adf d63e 5529 273f a842 9c3f
00000190: ce03 1b3e 760c 06be 6acb 3dc0 fc0c ebbf
000001a0: dffe 1ac0 fb4a 23bf ca73 dd3f 353b c5be
000001b0: ab58 553f ad0f b2be 1d5b f13e 7458 90bf
000001c0: a9d8 103f 0bbc 65be 3175 823f 3965 85be
000001d0: b259 b93f 5f0c 7d3e aa94 5a3f 2e19 b3bd
000001e0: 8bdf c2bf d2c8 52bf 18f1 58bc 9a84 10bf
000001f0: cb39 9fbf 586b c9bf 01e5 153f a1ce 9b3f
00000200: 162e 05bf d99e 3b3f b90a 51bf 4fd6 443f
00000210: 6ab2 603f 342e 683c 4359 e2bd c078 c43d
00000220: 39b4 9cbe 812a 8a3f ed41 a93e fd10 82be
00000230: 3791 dd3f 24f0 113e 55f3 e13e db80 5abf
00000240: 7136 c23f 3842 b73f 99f7 a13e c0a2 183f
00000250: 4eef 023e 7d8c 30be 7972 0d3e 3897 57bf
00000260: 8645 6ebf bc0a 7e3c b365 393f f0aa 1c3e
00000270: 272d 333f 3e07 9dbe 2ea4 21bf d4b4 a1be
00000280: 7203 2cbf 6cd5 5a3f 94d7 27bf 4e89 a8be
00000290: 1c05 1bbf 3a3f 803f ac7f 153f 5839 a8bf
000002a0: bf94 553e 4bc4 e2bc 8f95 dd3f 0c3a c93e
000002b0: cece 273f 819d 0f3f 6220 d4bf ed01 f1be
000002c0: 780d e73e 8f39 dc3d 5586 ce3e faaa bb3f
000002d0: b541 f9bc b21c 3f3f 9947 35bf a4ca d4be
000002e0: d404 a4be e022 98be 206f 773f bb25 d8bf
000002f0: 5e8e 783f 566b ff3f 3d71 023f 48b1 4abf
00000300: b305 a7bf 940c 853f 996c af3d b89d 7fbf
00000310: ad01 0fbf 4227 c2be 59a9 473f 0200 693f
00000320: 6f57 72bf a3b5 80bf e719 2bbf 96bc d23f
00000330: de4d c4bf 6ce7 833d f303 b43f 51f7 1cbe
00000340: 6747 a13e d536 a83f 58ab febe 7b48 c4bc
00000350: bf9d 57be aeab de3e 513d 033b 5a1d 8f3f
00000360: 1172 f43f 4da0 19be c0c1 6f3d 20ca a73a
00000370: c3ea 6abf 082d a9bd 470c a33e 3f21 143f
00000380: 7faf 3c3f f617 0540 4b72 533f 8178 69bf
00000390: 2625 8fbf 4a9c 39bf ce82 023f 2bac dfbe
000003a0: 8718 5dbf b43e 3d3e 7b90 f5bf 11c3 0140
000003b0: 93e0 b23f 2f81 753f d06f 68be 66e2 733e
000003c0: 1c62 07c0 f196 0abf 88e0 b53f f2db 703f
000003d0: 10f3 fdbe 5930 e6be 9841 f43f 1879 82bf
000003e0: 7b1e e0bf 1d61 a9bd b387 24bf e86e 683e
000003f0: 6ae1 81bf a44d 323f eec1 a33e 3576 7dbf
-1.168059 1.1709043 -1.0646955 -0.060975224 -1.1004097 -0.05060162 -1.1134244 -0.1965375
-0.8430639 -1.5781878 -0.6513323 0.5951926 -0.27423248 -0.022156468 -0.49456412 0.14430183
0.36815974 -0.26544762 -0.28275502 0.3742527 -0.53602624 -0.8202826 -0.7431271 0.44738528
-0.29749912 1.4344634 -1.4431924 0.067828305 1.0742922 -0.8600462 -0.0411734 -0.26674438
0.19481032 0.017927362 -0.5236582 0.9908854 0.4337755 0.42204633 -1.3597513 -0.6276036
2.5140939 0.5838235 0.16049507 2.0750377 0.28226784 0.4948075 0.104632676 0.23937805
0.5206919 -0.56030416 0.34059203 0.07298113 0.6867957 -0.5891194 0.55232686 -0.17125079
1.4234219 0.06520769 0.36076126 0.6281407 0.17817906 -0.17143545 -1.6431048 -0.4723258
-0.52625686 0.009919 -0.53692806 -1.0341614 -0.4587616 2.8311725 -0.48569512 1.0909599
-0.33070573 -0.55475897 -0.36899582 -0.53794736 0.9750507 0.14350115 -0.30303922 -0.24235062
-0.7303709 -0.6262546 -0.59812963 -0.015710475 -0.7522107 0.88954186 0.07224469 -0.8281597
0.3883402 -0.36233956 -0.104735926 1.2831099 0.64329076 1.301626 0.0020800582 0.14819103
-1.9720181 0.41967183 0.6529744 1.2207842 0.1513817 -0.13090691 -2.9655404 -1.8363338
-2.421806 -0.63786286 1.7300961 -0.38521734 0.8333842 -0.34777585 0.47139826 -1.1276994
0.565806 -0.22435014 1.0192014 -0.2605379 1.4480498 0.2471175 0.85383093 -0.08745037
-1.522447 -0.8233768 -0.013241075 -0.56452334 -1.2439512 -1.5735884 0.5855256 1.2172433
-0.52023447 0.7328926 -0.81656986 0.7688951 0.8777224 0.014171172 -0.110521816 0.09593344
-0.3060625 1.0794221 0.3305811 -0.25403586 1.7309941 0.14251763 0.4413096 -0.8535287
1.5172864 1.4317083 0.31634215 0.59623337 0.127866 -0.17241092 0.13813199 -0.84215117
-0.93074834 0.015505489 0.72420806 0.15299582 0.6999077 -0.30669588 -0.63141143 -0.31583273
-0.6719276 0.85481906 -0.6556332 -0.32917255 -0.6055467 1.0019295 0.58397937 -1.31425
0.20857523 -0.02768149 1.7311267 0.393021 0.65549934 0.56099707 -1.6572382 -0.47071782
0.45127463 0.10753166 0.40336862 1.4661553 -0.03042684 0.7465316 -0.70812374 -0.41560853
-0.32034934 -0.29714108 0.9665394 -1.6886514 0.97092235 1.9954631 0.5095404 -0.7917676
-1.3048614 1.0394464 0.08565635 -0.99850035 -0.5586193 -0.37920576 0.7799278 0.91015637
-0.94664663 -1.0055431 -0.668364 1.6463802 -1.5336263 0.064406246 1.4063705 -0.15328719
0.31499788 1.3141733 -0.497401 -0.023960343 -0.21056269 0.43490356 0.002002556 1.1180832
1.909731 -0.15002556 0.058534384 0.0012801327 -0.9176447 -0.08260542 0.31845304 0.5786323
0.73705286 2.0795875 0.8259627 -0.911995 -1.1183212 -0.72504103 0.5098084 -0.4368604
-0.8636555 0.1848095 -1.9184717 2.027531 1.3974785 0.95900244 -0.22698903 0.23816833
-2.1153631 -0.5413657 1.4209146 0.9408561 -0.49599504 -0.4495876 1.9082518 -1.0193205
-1.7509302 -0.08270476 -0.6426956 0.22698557 -1.0146916 0.6964972 0.31983894 -0.99008495

bias_virus.weight f4 [174, 1]
00000000: c80a cbbf e702 6fbc 98d3 6fbf eae3 513f
00000010: 52f5 f7bf 0ec5 1c3e 30d6 133f 29d6 bdbf
00000020: cd10 04bf a131 dabe 7fa4 603f 3ef3 35bf
00000030: 332d edbe 801a 92bc 3c61 063f 5779 6cbf
00000040: ba0e ab3e bd57 153f 1903 f2be 8607 4fbf
00000050: 5501 ee3e 3bfc 9abe fdcf 0a3f 54bc 94be
00000060: fd3c f23e 2a9f 353f 9a86 13bf bf31 6fbd
00000070: 02da 6ebf e12f 233e 4c42 d23e d151 0b3e
00000080: 9e7f babe a23b 5a3f 99ad 8cbd 571e 0bbf
00000090: bdc8 3e3f df72 bb3e 3052 a0bd 3151 1d3f
000000a0: 0099 f4bd fdb9 023f 6994 a53f 6362 83bb
000000b0: fa23 373f d7ce ca3e 17d3 dabf 6a6d cabe
000000c0: a54d 853e 5eb2 92bf 8ec9 61bf c07a 86bf
000000d0: e5ef 5d3e c152 4740 a965 293f 25bf 97be
000000e0: a7b2 1a3f f127 35bf e017 4bbf 07f8 28bf
000000f0: 0c97 673d 5972 85be c2a0 ce3d 64eb 873e
00000100: af43 c73e 5953 943e cc83 5fbf ec87 bcbf
00000110: 3e62 26bf b82b 45bf 8c61 f8be f6d3 44be
00000120: 7db3 993e 4a20 0e3f a658 f63d 9430 a53d
00000130: 149d 76be bfe3 8cbf a523 303f be11 c5bf
00000140: 023d de3e b9d7 0fbe ff3a 95bf 59ae 643e
00000150: bdf7 023f d96a 87bf 8bae 0dbf b149 19bf
00000160: d667 84bf 6655 19bf 1df0 b63e 202f 1d3e
00000170: e67a 9c3d c5b5 9f3c 0761 563e 9bb2 13bf
00000180: 2efc bb3f 998d 833f 8c4a 4d3e 8a21 0dbe
00000190: 6411 433f 72bc 1bbf ee7e a3be 3588 1ebf
000001a0: ddeb 303f cd1e 943f 5d36 113f 631d 5a3f
000001b0: d317 373f d96f c8be 3098 8a3e 6416 313d
000001c0: a4e4 083e 9a51 b93f 82db e4be de4f c2bc
000001d0: da69 10bf ac9e b23e 4a46 b33e 5ea9 b03e
000001e0: 2195 22bf 1ac0 45bf 2492 c13d 305e 3bbe
000001f0: 600a 28bf 4271 a5bf 227f a5be af23 88be
00000200: 8ac0 da3f 3829 2fbf c1c0 59bf 3c9b 03be
00000210: 4a0b e1be 81fc 3f3e ae28 a13c f76e c23f
00000220: 6a84 443d 1276 02bf f9ec 23bf 39ea 98be
00000230: 254c 34bf 9842 0bbf 8f1a 693e 8de3 343f
00000240: 368f 0bbf 0c27 2f3f 1cc1 84bf 323b 7abd
00000250: 814d 74be 3390 303f 23ec f93e d11c 67bf
00000260: d3e3 a23d 0a93 95be 33df 013f eb5c fcbe
00000270: 2664 d3be 3a42 003f 23f4 09bf 0352 d2be
00000280: bffd adbf d093 bc3d e927 043f 6469 08be
00000290: 4317 0bbf c3a5 63bf f2f2 603f 41e5 6cbe
000002a0: 1a1d 52bf 5dc6 05bf 9e4a 28be 9a05 263e
000002b0: 93f3 57bf 2b82 dcbe
-1.5862665 -0.014588094 -0.9368224 0.81988394 -1.9371741 0.15309545 0.577487 -1.4830981
-0.51588136 -0.4261599 0.87751 -0.71074283 -0.46323547 -0.017834902 0.5249212 -0.9237265
0.33409673 0.58337003 -0.47267988 -0.80870855 0.4648539 -0.30270562 0.54223615 -0.29049933
0.47312155 0.7094599 -0.5762726 -0.05839705 -0.93301404 0.15936233 0.41066206 0.13605429
-0.3642549 0.8524724 -0.068690486 -0.5434317 0.7452505 0.36611077 -0.07828176 0.61452013
-0.11943245 0.51065046 1.2935916 -0.0040095313 0.7153927 0.3961093 -1.709567 -0.395366
0.260358 -1.1460683 -0.88198173 -1.050621 0.21673544 3.114426 0.66170746 -0.2963802
0.6042885 -0.7076407 -0.79333305 -0.6600346 0.056540534 -0.26063803 0.10089256 0.26546776
0.38918826 0.2896984 -0.8731048 -1.472898 -0.64993656 -0.77019835 -0.48511922 -0.19221482
0.3001975 0.5551802 0.12028627 0.08065906 -0.24083358 -1.1007003 0.6880439 -1.539604
0.4340592 -0.14047135 -1.1658629 0.22332133 0.5115927 -1.0579482 -0.55344456 -0.5987807
-1.0344188 -0.5989593 0.35730067 0.15350008 0.076406285 0.019495854 0.2093545 -0.57694405
1.4686334 1.0277587 0.20047969 -0.13782325 0.7619841 -0.6083442 -0.31932777 -0.61926585
0.691099 1.15719 0.56723577 0.8520109 0.7152073 -0.39147833 0.27069235 0.043234244
0.1336847 1.4478028 -0.4469872 -0.023719724 -0.56411517 0.34886682 0.35014564 0.34504217
-0.635088 -0.7724625 0.09451702 -0.18297648 -0.6564083 -1.2925189 -0.32323557 -0.26589724
1.7090008 -0.6842227 -0.85059744 -0.12852186 -0.43953925 0.18748666 0.019672718 1.5190114
0.047977842 -0.5096141 -0.64033467 -0.29866198 -0.7042869 -0.5439849 0.22764038 0.70659715
-0.545154 0.68418956 -1.0371432 -0.06109161 -0.2385769 0.6897003 0.4881297 -0.90278345
0.0795361 -0.29213744 0.507312 -0.4928964 -0.41287345 0.50101054 -0.5388815 -0.41078195
-1.3593062 0.092078805 0.516234 -0.13321453 -0.5433237 -0.8892481 0.87870705 -0.23134328
-0.82075655 -0.52255803 -0.16434714 0.16213074 -0.8435604 -0.4306806

bias_human.weight f4 [1002, 1]
00000000: b10b 8f3f cb54 1ebf f4f6 8e3e 85a2 db3d
00000010: c3b8 e8bf 5037 c33f 8b13 23bf 63e9 bcbd
00000020: d2d1 db3d ccb7 8ebe 83af 8ebd b388 7abe
00000030: 2a9f 4cbe b52d 853d 9945 713f 50af a43f
00000040: 6f68 fbbe b4e1 a13e ed95 ba3f 6e46 203f
00000050: 25b3 f93f 97c6 9cbf 0e34 1e40 da3b 08bf
00000060: dff7 413f cc8b c3bd 22df c73f 291f 86bf
00000070: 0dcc c13f ba2b 683f a641 953e 30d0 a83f
00000080: 2c64 393d c7a4 ee3f d5cb 26bf bfdd 0c3f
00000090: e450 973e 294d bd3e 420a bcbf e7b9 0d3f
000000a0: a439 83bf 04b9 483e 3725 e53e 0a1f be3e
000000b0: 1d18 833d 71d3 d8bf 7039 05bf 7a68 debd
000000c0: 72ce c43f c6e4 b7bd 9ed0 8a3f acb8 273e
000000d0: a1ac 10be 94f2 4cbf bd7d 8e3f 4ea7 73be
000000e0: 5c11 86bf fcec ddbe ef53 37bf 4ac7 38bf
000000f0: 20d8 e83e db8c ccbf e2ad 3a3e 572f e93e
00000100: 618d 4c3f 7f9b 10bf 01c6 b4be 0325 c7bf
00000110: 1b64 003e 7b40 a0bf 58ad 5fbf 90bb 503f
00000120: 47e0 0bbf 70c1 aabd 9d61 9b3e 19cf 27be
00000130: 7a84 9bbf bf2b 4140 8711 b73c 436f 853f
00000140: 891c 00bf 054c 8f3d 7f99 3a3b 4d84 f43e
00000150: 241b 2ebe 7bfd ab3e 1bf0 acbf 3b18 67bf
00000160: f5d7 92bf a3c1 edbe dff2 bd3e 4484 14bc
00000170: 1085 e83e 10bf 94bd a0c5 c5be 906b bebf
00000180: abc5 aebc 52f8 12be 7abd adbf 8903 e53f
00000190: 55cd b3be 2349 8b3f b8aa 3ebf 500b 563f
000001a0: 739d d03e 3b74 e3be 39a7 48bc cada b0be
000001b0: d056 07bf 3034 1abf 70db 003f df63 733f
000001c0: 94c9 bb3e 67a6 c0be bd92 ca3e f139 843f
000001d0: fa90 c5be 2520 0f3f 3767 f43e e0d2 86bf
000001e0: 92c6 b73e 68c6 c1bd c1c9 10bf 712f 7b3e
000001f0: 23bd 4abf ed8a 243f 2c5f 45bc 3a6c 00bf
00000200: c063 c53d 1e0a d53e 57e7 83bf a8e6 00bf
00000210: a314 ae3e 76e0 96be 60ec 9bbf 199c 3bbe
00000220: 2142 93bf 7c62 30be f61a c2be e755 18bf
00000230: f4b4 a4bf d63a 1f3f 803f c83e 7a84 03bf
00000240: 911b 0cbf c7de 003f 1712 3b3f 04f5 c23e
00000250: 80df 1ac0 f0f3 213f f165 9bbf 6af6 843e
00000260: 2b89 9ebe 8fce 963e 53e4 543d 8a3f cb3e
00000270: afb7 eabe e226 c53d db7f a23f e1cd a1bf
00000280: 397f bebf aaeb 18bf 8fcd 293d 60d5 cebf
00000290: c81f 0dbe 6418 5b3e b50d 223e 37a7 41bf
000002a0: dfb4 98bf 00d4 b43f 73b4 f5bd ee7a 473f
000002b0: 864b 173f 1aca e1bd a081 bc3e 232f 933e
000002c0: efbd 6fbf e554 2fbf 998d cabe 53b1 a13e
000002d0: 1911 093f 7c47 313f fb8e f93f 3b13 8bbe
000002e0: f2b4 ba3e b499 903f 4953 a53f 4d7a ab3f
000002f0: 202e 0140 e0e2 d33f a689 5c3f 07e7 f4be
00000300: fa5f 0f3f a60a 663e 96be 9f3f e347 ddbf
00000310: a21a 0e3e 1502 0c3f 6c68 0abe e7c3 34be
00000320: 3135 d33e 0da0 70bf 3c52 b23e c740 d13e
00000330: 4289 44bf 7e65 4f3f 2855 03be 838d 34bf
00000340: 402c e93f d4a9 bb3f 15df 76bf 129a 333d
00000350: 792b 23bf cd01 82bf 9d49 293f 0659 fd3f
00000360: 45d8 583f b223 90be 97c1 cc3d fbd2 ebbe
00000370: c2d1 5abf 3151 85bd 878d c1bd 65a9 77bf
00000380: 99c2 febc db99 f13b d9a6 0b3f 5564 53bf
00000390: 719c 8dbe 30a3 1a3e a08b 16bf 074d c43e
000003a0: 836d 03c0 d25d c63d f05b 9e3e 74cf 46bf
000003b0: 744d 333d 5615 79bf 16de 2e3f b47a 39be
000003c0: a6c1 13be efd2 85bf 0a9e cd3f 86da c4bd
000003d0: 9976 183f dce2 ddbf 0b8a 8a3f 51e7 2b3e
000003e0: 5dce 7ebf 7bdb ba3e 1288 45bf beac dfbf
000003f0: 8d0f 9e3f 6f9b 353e d4f6 773f 2196 cbbf
1.1175443 -0.61848134 0.27922785 0.107243575 -1.8181385 1.5251255 -0.63701695 -0.092242025
0.107333794 -0.278746 -0.0696707 -0.24466209 -0.19982591 0.065028585 0.9424682 1.2866001
-0.49103114 0.3161751 1.4577004 0.6260747 1.9507796 -1.2248105 2.4719272 -0.53216326
0.75768846 -0.095481485 1.561497 -1.0478259 1.5140396 0.9069172 0.29151648 1.3188534
0.045261547 1.8644036 -0.65154773 0.5502586 0.29553902 0.3697293 -1.469063 0.5536179
-1.0251966 0.19601828 0.44754955 0.37133056 0.064010836 -1.6939527 -0.5204077 -0.10859771
1.5375502 -0.08979182 1.0844915 0.1637904 -0.14128353 -0.80057645 1.1132122 -0.2379429
-1.0474048 -0.43344867 -0.7161245 -0.7217909 0.4547739 -1.5980486 0.18230394 0.4554393
0.7990323 -0.5648727 -0.35307315 -1.555817 0.12538187 -1.2519678 -0.87373877 0.815362
-0.54639095 -0.083376765 0.3034791 -0.16387595 -1.2149804 3.018295 0.022347225 1.0424579
-0.5004354 0.069969214 0.0028472838 0.47757187 -0.17002541 0.33591828 -1.3510774 -0.9027135
-1.1472155 -0.46436796 0.37099358 -0.009064738 0.4541402 -0.07263005 -0.38627338 -1.4876575
-0.02133449 -0.14352539 -1.3573449 1.7891704 -0.35117593 1.0881695 -0.74479246 0.8361101
0.40745124 -0.44424614 -0.0122469 -0.34541923 -0.5286684 -0.6023588 0.50334835 0.95074266
0.3667723 -0.37626955 0.39565077 1.0330182 -0.3858717 0.55908424 0.47734997 -1.0533104
0.35893685 -0.09461671 -0.5655785 0.24529816 -0.7919485 0.64274484 -0.0120466165 -0.5016514
0.096381664 0.4160928 -1.0304974 -0.50351954 0.3400012 -0.29468125 -1.2181511 -0.18321265
-1.1504556 -0.17225069 -0.37911195 -0.59506077 -1.2867723 0.6219915 0.39110947 -0.5137402
-0.54729563 0.5033993 0.7307448 0.38077557 -2.4198914 0.63262844 -1.2140485 0.2596925
-0.30964026 0.29454467 0.05197556 0.39696914 -0.45843264 0.09626557 1.2695268 -1.2640954
-1.4882575 -0.59734595 0.0414558 -1.6158867 -0.13781655 0.21396023 0.15825541 -0.75645775
-1.1930197 1.4127197 -0.119973086 0.7792195 0.59099615 -0.11024876 0.36817646 0.287469
-0.9364919 -0.68488914 -0.39561155 0.315806 0.53541714 0.692497 1.9496759 -0.2716311
0.36466175 1.1296906 1.2916042 1.3396698 2.0184402 1.6553612 0.86147535 -0.4783251
0.56005824 0.22465 1.2480037 -1.7287563 0.13877347 0.54690677 -0.13516396 -0.17652856
0.4125152 -0.9399422 0.34828365 0.40869734 -0.7677194 0.8101424 -0.12825453 -0.7052843
1.8216629 1.4661202 -0.96434146 0.043848105 -0.6373821 -1.01568 0.6612795 1.9792793
0.84705 -0.28152233 0.09997862 -0.46059403 -0.85476315 -0.06509627 -0.09450822 -0.9674285
-0.03109865 0.0073730773 0.54551464 -0.8257497 -0.27658418 0.15101314 -0.588068 0.38340017
-2.053559 0.096858636 0.30929518 -0.776603 0.043775037 -0.9729818 0.68307626 -0.18113214
-0.1442934 -1.0454997 1.6063855 -0.096119925 0.59555966 -1.7334857 1.0823377 0.16787459
-0.99533635 0.36495575 -0.7716075 -1.7474592 1.2348496 0.17735074 0.96861005 -1.5905191
